Graph Neural Network/110612008.pth (torch, 839644 bytes, 6 tensors)

bias f4 [128]
000000 88 99 dd bd c4 c5 55 bd fb 08 9a bd a8 17 48 3d
       -0.108202994 -0.052190557 -0.07521244 0.048850685
000010 02 fd 90 bd bf 05 3b bd 50 a1 3d bd b3 5b a2 bd
       -0.070795074 -0.045659777 -0.046296418 -0.079276465
000020 86 d7 84 3b de 7d a6 bc 7b 8b c4 bd a4 0c 6f bd
       0.0040540127 -0.02032369 -0.09596916 -0.058361664
000030 8b ca 4d bd 8b 9c 94 bd 84 f5 6d bd 60 0c ce bb
       -0.05024199 -0.07256421 -0.05809547 -0.0062880963
000040 9d 06 7c bd cc 94 96 bd 15 35 91 bd 91 4d 93 3c
       -0.061529744 -0.073525995 -0.07090203 0.017981322
000050 21 ca 5f bd ef a6 c8 bc b3 a4 7d bd 31 b0 75 bc
       -0.054636125 -0.024493663 -0.061924648 -0.014995621
000060 ec 1e 59 bd f3 8b 46 ba 67 a5 15 bd 45 e3 b8 3c
       -0.053008005 -0.00075739546 -0.036534693 0.022569308
000070 5a 19 b9 bc 1a f9 e3 bd f4 f1 59 bd e3 84 ae bc
       -0.022595096 -0.11131497 -0.05320926 -0.0213036
000080 b2 9d f8 ba b4 3e 81 3c ab 4f 3a 3d d4 c5 36 bc
       -0.0018967895 0.01577697 0.045486134 -0.011155564
000090 6b 1d a4 bd 56 f5 92 3d 72 43 9c bd 08 16 43 bb
       -0.080134235 0.071757 -0.07630052 -0.002976777
0000a0 4c c9 80 3c bb 93 ae 3c a5 00 c2 bd fc f4 04 bd
       0.015720986 0.021310678 -0.09472779 -0.032460198
0000b0 9f 78 17 3e c3 64 5d 3d f7 2f 83 bd 3b b1 d6 3c
       0.14792107 0.054051172 -0.06405633 0.026207557
0000c0 22 3b 9b bc 3b 04 9c bd 72 b7 54 bd 46 6f ae bd
       -0.018949095 -0.076179944 -0.05193276 -0.085173175
0000d0 37 6b f8 bc fb 90 4a bd 17 2c 8d bd 03 c9 ad bd
       -0.030324562 -0.04945467 -0.06893175 -0.084856056
0000e0 00 03 58 3e dc 50 8d 3d 60 8b dc 3c 5a b9 f0 bc
       0.21094894 0.06900188 0.026921928 -0.029385258
0000f0 9c 3b 39 b9 02 37 0d bd 82 35 a6 3c 77 06 bf bc
       -0.00017665181 -0.034476288 0.020289186 -0.023318512
000100 49 8e 9e bd 1d f6 79 bd 70 a1 92 bd a1 c8 f9 3c
       -0.077419825 -0.061025728 -0.07159698 0.030491175
000110 8c db e5 3b a2 a5 1e 3d cb 4c 39 bd dd 44 b3 bd
       0.0070146974 0.03873218 -0.04523925 -0.08753369
000120 59 5a 7b 3d 85 01 16 bd 0e e8 33 3d 08 49 c0 bc
       0.06136546 -0.036622543 0.043922476 -0.023472324
000130 4c 99 66 3d ee 6d 3b 3d 2c 01 46 3d 06 69 a2 bd
       0.05629854 0.045759134 0.04834096 -0.07930188
000140 d2 16 8e bd c9 27 56 bd 12 fe 94 bd d2 d4 1e 3c
       -0.069379464 -0.052284036 -0.072750226 0.009694295
000150 9f da 5d bd 09 4f 8c bd c2 a9 03 3d 0e 1a c4 bd
       -0.05416357 -0.06851012 0.032144316 -0.09575282
000160 74 b2 8c bc a0 12 2c 3d bd ae 11 be 52 49 bd bd
       -0.017174937 0.04200995 -0.14226814 -0.092425
000170 2f 68 26 3c e1 d2 9f bd 28 40 a6 bc 56 59 66 bc
       0.010156675 -0.07803894 -0.020294264 -0.014059385
000180 98 59 ba bd ea 25 93 bc 4d 5e 8a bb a9 0e 26 3d
       -0.0909912 -0.017962415 -0.0042226673 0.040541325
000190 ea 2b ce bd 4a d3 62 3d 2a b7 42 3d 7c 6c 91 bd
       -0.1006697 0.055377282 0.04753796 -0.0710077
0001a0 57 ca 70 3d 39 7e f2 bb a7 18 91 bc 1e 20 87 bd
       0.058786716 -0.007400301 -0.01771195 -0.06597923
0001b0 61 07 51 3d 4c df 68 bd 2f 69 73 3d 90 2c ab bd
       0.051032428 -0.056853577 0.059426483 -0.08358109
0001c0 2a 67 e9 bc 51 5e 06 bd d9 0a 91 bd 8a 9d 39 bd
       -0.028491575 -0.03280479 -0.07082147 -0.045316257
0001d0 af 6f cc bd 75 4b 86 3c f2 7e 91 bc ee 45 b9 bc
       -0.099822395 0.016393403 -0.017760728 -0.022616353
0001e0 c4 c8 9c bc 97 ad 00 bb 9c 4a 94 bc 11 e2 57 bd
       -0.019138701 -0.0019634718 -0.018101983 -0.052705828
0001f0 15 41 11 3d 64 a6 65 bd da 46 7a bd 48 66 cb bd
       0.035462458 -0.056066886 -0.061102726 -0.09931618

weight f4 [128, 1433]
000000 6f d4 f0 3c f5 3d 82 3d 52 c2 df 3c 5c 49 e5 bc
       0.029398171 0.063594736 0.027314339 -0.027989082
000010 ac 1a 7e 3d d5 25 c3 bc 97 9c 91 bc 9e 8a 88 bc
       0.062037155 -0.02382175 -0.017774863 -0.01666766
000020 bf d7 fc 3c 92 31 97 bc a9 6f e1 3b 9c d2 9a 3d
       0.030864595 -0.018456254 0.006879766 0.07559702
000030 7e 46 ea 3c 17 e8 a8 3c 6b c1 22 3c bb 6a b6 3b
       0.028598066 0.020618482 0.00993381 0.0055669225
000040 c4 d8 07 3d d1 df cd bb ef 83 45 bc 20 14 0c 3e
       0.03316571 -0.0062827845 -0.012055381 0.13679552
000050 af 9d df bb 94 1b 05 bd dc d7 15 bd 20 1f 29 bd
       -0.0068242173 -0.032497004 -0.036582813 -0.04128945
000060 cd ec 64 3d b9 ca 19 3d c3 46 60 3c 2e 15 86 3b
       0.055889893 0.037546847 0.013688746 0.0040918803
000070 37 6e 91 bc d3 f0 94 3c e1 1e 2a bc b6 a2 f8 3c
       -0.01775275 0.01818124 -0.010383339 0.030351024
000080 e7 3c 60 3c 46 c1 4d 3c 3f 74 0b bc de 54 c3 3a
       0.013686395 0.012558287 -0.008511602 0.0014902612
000090 c6 b9 57 bc ab bc 7a 3c 24 63 14 bd 0a ec a1 3b
       -0.01316685 0.015303771 -0.03622736 0.004941468
0000a0 7e e3 90 3d 74 8a 91 3c 60 19 9a bc 8c a5 aa 3c
       0.07074641 0.017766215 -0.018810928 0.020830892
0000b0 e3 0d 97 bc cb 8d 9b bb d9 c7 f6 bc b2 12 6a bc
       -0.018439239 -0.0047471276 -0.030124592 -0.014286684
0000c0 ed 76 06 3b 6a 89 1f bc fd 81 07 bd 15 9e cb 3c
       0.0020517663 -0.009737352 -0.03308295 0.024855653
0000d0 43 7d 85 ba 63 38 80 3c 76 c9 13 3c d1 48 c1 bc
       -0.0010184426 0.015651887 0.0090202 -0.023594292
0000e0 55 38 0d 3d bb 52 51 3d ef 4c ee bb 37 68 94 3d
       0.03447755 0.05110429 -0.007272355 0.0724644
0000f0 ad 87 c1 bc ca 20 43 3c 7c fa 9e 3c 88 a6 31 bd
       -0.023624266 0.011909673 0.01940655 -0.043371707
000100 72 47 cc 3c c2 b6 a1 3c 3b 10 96 3d 12 4f 05 bd
       0.024936412 0.019740466 0.073273145 -0.03254611
000110 34 ee 1a 3c 3a 71 5b 3d 5f 40 10 3d a9 e3 98 bc
       0.009456206 0.05357478 0.03521764 -0.018663244
000120 5b 13 2c bd 13 5f ae bc c1 8c 5a bd c4 33 2e 3d
       -0.042010646 -0.02128557 -0.05335689 0.042529836
000130 02 c5 db bb f3 ee 30 bc 15 8d 75 bc 2b e0 7c 3c
       -0.006706835 -0.010799157 -0.01498725 0.015434305
000140 76 27 bd 3c ab 95 94 3a 91 b9 fd ba 19 46 17 bc
       0.023090106 0.0011336108 -0.0019357671 -0.009233021
000150 18 53 79 3c b7 ec 8a bc 9a ee f8 bc 7e 83 69 bd
       0.015217565 -0.016958578 -0.030387212 -0.057010166
000160 9b 8f 29 bc 27 02 fc bc 1a 0c 57 3d 2f d3 7d 3c
       -0.01034918 -0.030762745 0.052501775 0.015492245
000170 c4 2d 84 ba 1d 35 56 3d 68 a0 8f bc 01 29 8f 3c
       -0.001008444 0.052296747 -0.017532542 0.017475607
000180 7d 6b 98 bc eb 79 ed bb 07 36 bd bc cf cd 18 bd
       -0.018605942 -0.0072472 -0.023097051 -0.03730565
000190 46 26 28 3d 89 86 69 bb 34 e2 48 3c 61 5d 86 3d
       0.041052125 -0.0035633168 0.012260962 0.06560779
0001a0 2c f9 09 bc b8 92 00 3d b1 7d 12 3c 47 db 42 3d
       -0.008421224 0.031389922 0.0089411 0.0475724
0001b0 3c 58 a6 3c fb eb 77 3d f8 a7 1d 3d 27 a2 f9 bb
       0.020305745 0.060527783 0.038490266 -0.007618207
0001c0 cc 8b 29 3c b5 7a 01 3d 8b 65 51 3d b4 d2 4d bc
       0.010348272 0.031611163 0.05112223 -0.012562443
0001d0 3d 76 96 bc 7d f8 ac bc d9 36 a7 bc dc ea 80 3d
       -0.018366927 -0.021114582 -0.020411896 0.06294796
0001e0 0d d1 98 3c 41 d1 7e 3d d0 13 07 3d 25 fe e8 bb
       0.01865437 0.06221128 0.03297788 -0.0071103745
0001f0 d8 a4 b6 3c f1 07 34 3d 27 05 ce 3c e2 dc 4c 3d
       0.0222954 0.043952886 0.025148941 0.050015338
000200 b7 c3 e6 3c 85 77 ea 3c 8e 00 9e 3d 21 24 11 bc
       0.028169496 0.028621444 0.077149495 -0.008858711
000210 58 75 01 3d 1c 6e e0 3b 2e 6e f7 bc 01 cf 65 3d
       0.03160605 0.0068490636 -0.030203905 0.056105617
000220 7e 15 73 bc 51 c5 95 bb 25 df 22 3d b0 12 eb bb
       -0.014836667 -0.004570641 0.03976359 -0.0071738586
000230 68 dd 9d bd 81 6c 2b 3c 54 4a e4 3b cd 74 01 3d
       -0.077082455 0.010462881 0.0069668684 0.03160553
000240 d4 33 07 3c 92 70 23 3d 4d 92 16 bd 95 e2 4f bc
       0.008252103 0.039902277 -0.036760617 -0.012688299
000250 25 38 d6 bb f7 f0 4c bb 5b 50 55 3d 84 4d 2e 3d
       -0.0065374547 -0.0031271556 0.052078586 0.042554393
000260 83 31 0d 3d e4 cd 7e 3d bc 3a 8e 3c ac 6b 08 bd
       0.034471046 0.06220807 0.017361991 -0.03330581
000270 3c 5e a7 3c 8b 48 ee bc f0 a9 15 3b 94 ca 15 3d
       0.020430677 -0.029087326 0.0022836886 0.036570147
000280 fe 0b 08 3b 8f c1 09 3d d3 b0 a8 bc fb be 42 bd
       0.00207591 0.033631857 -0.020592129 -0.047545414
000290 94 93 b2 bc da 9b 80 3c 8d 79 00 bd 5f db 29 bb
       -0.021798886 0.015699316 -0.03136592 -0.002591811
0002a0 b6 fd 40 3d be 2c d0 ba c1 c0 e1 3c 30 64 26 3d
       0.047116958 -0.0015882475 0.027557733 0.04062289
0002b0 50 f8 0b 3d 65 ff bc 3c bf da 6f 39 f1 69 77 3d
       0.034172356 0.023071 0.00022874305 0.060403768
0002c0 ed bd c7 bb 3f 11 d9 3c 3a 4d d8 bc 84 a2 93 3c
       -0.006095639 0.026497481 -0.026404012 0.01802183
0002d0 6d f0 3d 3c 69 f2 bc bb 8d 1b 4a bd 23 50 0a bc
       0.0115929665 -0.005766202 -0.04934268 -0.008441958
0002e0 ae de e5 3c 93 79 ab 3c 7d 79 72 3d 05 0c f8 3c
       0.028060284 0.020931995 0.05919789 0.030279169
0002f0 11 07 ba ba 30 e4 02 3d 1e de e0 bc 20 1d 8d 3b
       -0.001419278 0.031955898 -0.027449664 0.0043064505
000300 7d 74 01 3d 94 91 29 bd 63 d8 df b9 20 74 25 3d
       0.031605233 -0.0413986 -0.00042695095 0.04039395
000310 ee 1e 19 bc 58 8d 52 3d dd a1 5c bb 42 4f 81 bb
       -0.009345753 0.051404327 -0.0033665814 -0.003946216
000320 43 db 85 bc b6 9c b4 3c 6f 77 7a bb c7 8c 72 bc
       -0.016339904 0.022047382 -0.003821816 -0.014804072
000330 d3 d4 00 bc 9d 4f da 3b 32 dd a6 3c e9 bb 13 3c
       -0.007863241 0.0066623227 0.020369146 0.009016969
000340 40 07 12 bd ea 61 50 3b 7a 3d bb 3c e1 4b a4 3b
       -0.035651445 0.0031796643 0.022856463 0.0050139283
000350 ae 58 ea 3c 5a 0c 8c 38 f9 1b f3 3b cc 8a 28 bc
       0.028606739 6.678021e-05 0.007419106 -0.010286998
000360 cd a8 e5 bc fa b1 24 bd 3b af fa bb 7e 06 dc bc
       -0.028034592 -0.040208794 -0.0076502836 -0.026858564
000370 0b 05 54 bd 85 74 0c 3d 1f 56 dc b9 40 f1 a8 bc
       -0.05176262 0.03429081 -0.00042025835 -0.02062285
000380 9a e6 27 bd 08 c3 c9 3b 97 d9 f9 bb f9 16 88 3d
       -0.040991403 0.0061572827 -0.0076248157 0.06645007
000390 e8 43 0d 3d c9 ef 21 3c 6d 8b 6c bc b1 8a c6 bc
       0.03448859 0.009883829 -0.014437539 -0.024236055
0003a0 49 b3 f5 3c a7 0a 84 bc c8 29 a2 bc f0 f3 04 3d
       0.029992716 -0.01611836 -0.019795313 0.0324592
0003b0 99 60 96 3b 9e eb c5 bc 42 49 3d 3c 74 34 74 3d
       0.004589152 -0.024160203 0.011553111 0.059620336
0003c0 39 6d 0e bc 90 ff 74 3d 17 e7 e8 bc 41 4e be bc
       -0.008693033 0.059814036 -0.028430505 -0.023230674
0003d0 4d 45 95 3a b6 e1 10 3d 71 56 8f 3d b9 37 89 bc
       0.0011388451 0.035371505 0.06998909 -0.016750203
0003e0 78 e0 a6 bd 79 68 32 3d 10 c1 eb bb 22 e6 1e 3d
       -0.08148283 0.043556664 -0.0071946457 0.03879369
0003f0 87 ba fd bc 40 38 46 3d e8 78 53 3d b6 06 04 bc
       -0.030972732 0.048393488 0.051628977 -0.008058241

bias f4 [128]
000000 68 17 8f bd 73 4d 9c bd 44 c1 f1 bc c1 ba 84 bd
       -0.06986886 -0.0763196 -0.029511102 -0.06480933
000010 f2 70 a4 3c 89 ca 0c bd a4 55 66 bd d9 5f 9a 3b
       0.020073388 -0.03437284 -0.056234017 0.004711133
000020 8e 50 ed bc 59 1c 93 bd a2 9f 2f bd e1 90 9d 3c
       -0.028969076 -0.07183141 -0.042876847 0.019234123
000030 ab a3 86 bd b8 9d 95 3b 6b fc f8 bc 2e bf b7 bc
       -0.06574186 0.0045659207 -0.0303938 -0.022430029
000040 c1 17 81 bd 48 70 86 3c e6 33 6a bd 58 d4 27 bd
       -0.06303359 0.016410962 -0.0571784 -0.04097399
000050 0d 63 d7 bc 1e bd a9 bc 86 b7 27 bd 97 f0 70 bd
       -0.026292348 -0.02072006 -0.040946506 -0.058823194
000060 05 c3 78 bd b1 42 39 bd c7 95 f5 bc ee 9f 24 bd
       -0.06073286 -0.045229618 -0.029978646 -0.040191583
000070 8d 45 e2 bc 3c 1c 75 bd ad 52 78 bd 9a f5 93 bd
       -0.027621055 -0.05984138 -0.06062572 -0.07224579
000080 42 0e ae bc 92 90 2c bd bf af 98 bc 6c 6b 09 bd
       -0.021247033 -0.04213006 -0.01863849 -0.03354971
000090 ad 3e 66 bd aa e0 02 bd f0 0b ed bc c4 7c dd bc
       -0.056212116 -0.031952538 -0.028936356 -0.027037032
0000a0 c2 bc 61 bd af 9c 5d 3c ed 39 7d bd d8 e0 01 bc
       -0.055111654 0.013526126 -0.06182282 -0.007927142
0000b0 de 31 2a bd 0d 57 88 bd 38 b0 80 bd 99 66 52 bd
       -0.041551463 -0.066572286 -0.06283611 -0.051367376
0000c0 dc 9e 84 bd 0e 0a f2 bc f4 0f 9a bd da 5e 82 3c
       -0.064756125 -0.02954581 -0.07522574 0.01591437
0000d0 ce 71 13 bd f4 5a 52 bd 08 40 50 bd a6 a0 64 bd
       -0.035997204 -0.05135627 -0.050842315 -0.05581727
0000e0 22 29 2f bd 59 e7 fd bc 23 a7 0e bd cf e2 b4 b9
       -0.042763837 -0.030994104 -0.034827363 -0.0003450126
0000f0 7b 8f 7e bd e3 19 5c bd 3b 35 36 bd 4f ff 1e bd
       -0.062148552 -0.053735625 -0.04448436 -0.0388177
000100 2f 4d 78 bd 0a ae 77 bd db 43 3e bd 65 ee 82 bc
       -0.060620483 -0.06046871 -0.04645143 -0.015982816
000110 82 c9 43 bd ea 1b 1b 3d 11 0f e7 bc 78 dc 7e bd
       -0.047799595 0.037868418 -0.028205426 -0.062221974
000120 f1 6c 31 bd b0 bf 03 bd b4 44 5e bc b1 4d 82 bd
       -0.043316785 -0.03216523 -0.013566185 -0.06362475
000130 37 7c 54 bd 6c 7a 68 bd a6 67 06 bd 73 2a 68 bd
       -0.051876273 -0.056757376 -0.03281369 -0.056681108
000140 f3 0e 97 bd 7d 85 92 bd ec 90 80 bd d1 63 0d bd
       -0.07375898 -0.07154367 -0.06277642 -0.03451902
000150 cb 58 40 39 41 11 39 bd 3d 85 51 bc 2c 35 4a bd
       0.00018343625 -0.04518247 -0.012788114 -0.049367115
000160 87 80 86 bb 52 f3 84 bd 31 3b 4d 3c fd e2 ad bc
       -0.004104677 -0.06491722 0.012526319 -0.0212264
000170 d2 ee a1 bc 5b c1 17 bd 5c f0 88 bd e8 97 76 3b
       -0.019767199 -0.037049633 -0.0668647 0.0037627164
000180 17 51 10 bd e4 e8 bb bc 47 3a 0a bd 71 8a 86 bd
       -0.035233583 -0.0229382 -0.033746984 -0.06569374
000190 20 a6 e8 3c 1b 96 90 bd 4d 9b 6e bd 83 22 5e bd
       0.028399527 -0.0705988 -0.058253575 -0.05423213
0001a0 f2 35 84 bd d7 43 46 3c 00 16 d1 bc 24 83 5e bd
       -0.06455602 0.012101135 -0.025523186 -0.054324284
0001b0 87 30 80 bd 4e b3 3a bd f2 c0 a2 bd a8 1f 10 bd
       -0.06259256 -0.045581155 -0.07946958 -0.03518644
0001c0 d3 e1 5c bd 07 02 c1 bc 30 40 07 bd f7 c3 00 3d
       -0.0539263 -0.023560537 -0.0330202 0.031436887
0001d0 df 2c 88 bc af 30 8b 3c ca 8a 4c bd b4 7a 6c 3c
       -0.016622959 0.016990988 -0.049937047 0.014433552
0001e0 90 df e0 bc c2 e6 ca 3d 07 31 35 bd 9d 65 22 3d
       -0.027450353 0.09907295 -0.04423621 0.039647687
0001f0 ff 0c c0 bc cf fd 89 bb 7c 0e 60 bd 83 7e 7e bd
       -0.023443697 -0.0042111645 -0.054701313 -0.06213237

weight f4 [128, 128]
000000 32 3a ba bc 98 b2 39 bd d8 f9 35 3d 91 f3 8d bd
       -0.022732828 -0.045336336 0.044427723 -0.06931222
000010 3f f2 1a be a1 68 9c 3c 48 44 07 be 38 2c 33 be
       -0.15131472 0.01909286 -0.13209641 -0.17497337
000020 40 29 ab bd bb fa fc bd 7b 12 78 ba 69 a3 e5 3c
       -0.08357477 -0.123525105 -0.0009463203 0.028032022
000030 71 21 87 bd 5a d8 db bc f9 ae 35 bd f7 55 24 bc
       -0.06598175 -0.026836563 -0.04435632 -0.010030261
000040 fb b8 1e be f6 82 28 3c 70 35 6b bd af 6f 0a bd
       -0.15500252 0.01028513 -0.05742401 -0.033797916
000050 76 57 f1 bd e6 d7 58 bd e9 75 25 be b0 9f 0e be
       -0.1178426 -0.05294027 -0.1615826 -0.13928103
000060 b9 b4 29 be 38 44 1d be 37 a1 20 be 59 d8 25 3c
       -0.16572846 -0.15358055 -0.15686499 0.010122382
000070 08 00 d0 bd b1 b4 82 bb cb a7 b1 bd ec 3b 4e bc
       -0.10156256 -0.0039888253 -0.08674582 -0.012587529
000080 31 fb 0d 3c e9 2a 25 3d 92 e9 3c bc f9 1c 12 3d
       0.008665846 0.040324125 -0.011530297 0.03567216
000090 77 12 40 bb db fd 93 3d a9 b2 c3 bc 5a be d5 bd
       -0.002930788 0.072261535 -0.023888903 -0.10436697
0000a0 88 f9 2b be 8b 00 06 be fc ac 88 bd 8d 40 59 bb
       -0.16794407 -0.13086145 -0.06673619 -0.0033150048
0000b0 ee d6 82 bd 43 de 7c bd 59 f7 b0 bd 4f c1 19 bd
       -0.06388651 -0.061735403 -0.08640928 -0.03753787
0000c0 fc cf c3 3c 63 d5 2d bc f2 81 31 3d 85 ce 8d bc
       0.023902886 -0.010609957 0.043336816 -0.01731039
0000d0 66 27 a4 bd 8c 42 57 bc c8 f3 36 bd 86 46 22 be
       -0.08015327 -0.013138425 -0.04466608 -0.15847215
0000e0 7a f7 fc bd 56 22 15 be 61 a6 78 bd 0a 34 ba bc
       -0.1235189 -0.1456388 -0.060705546 -0.022729892
0000f0 96 85 cd bd 37 39 7e bd 89 4d 20 be 75 8e b6 bc
       -0.10035245 -0.062066283 -0.15654577 -0.022284726
000100 6a 0d b1 bd 93 81 e8 bc a3 7b 48 bd 2c a4 74 bc
       -0.08645137 -0.028382098 -0.048946034 -0.01493172
000110 70 df 3d 3d 2c 4d a9 bd 36 75 c7 bd b5 9e e6 3c
       0.046355665 -0.082666725 -0.09739153 0.02815185
000120 45 0a d3 bd cb b1 de bd c4 7f f0 bc 0b 42 b7 bc
       -0.10304693 -0.10873755 -0.029357798 -0.022370359
000130 85 fe fb bd 65 79 aa bd 9c 72 cd bd c2 7c 9c bc
       -0.12304405 -0.083239354 -0.10031626 -0.019102458
000140 cf 59 b3 bc f1 e6 fb bd 7e 8d 3d 3d 3d c6 05 bd
       -0.02189341 -0.12299908 0.046277516 -0.032659758
000150 80 4d f9 bd 13 ad 29 bc 0f 46 99 3c 18 ed e7 3c
       -0.12172985 -0.0103562055 0.018710164 0.028311297
000160 59 e6 c7 3c 10 a2 00 bd 36 55 a8 bd 3c 31 b6 bd
       0.02440183 -0.031404555 -0.08219378 -0.088961095
000170 ed 3e 3a be f7 76 26 be c8 f3 95 3d 70 2e 24 be
       -0.18188067 -0.16256319 0.07321888 -0.1603334
000180 62 af 26 3d 10 37 ad bd fe 6f ec bd 52 46 4b 3d
       0.0406946 -0.08457768 -0.11544798 0.04962761
000190 e2 c7 22 3d 0b f5 74 bd 4d bf 3d be eb 15 31 be
       0.039741404 -0.059804004 -0.18530007 -0.17293517
0001a0 07 5d 59 bd 7a 72 2f 3d 02 73 1a bd df 1a cf bd
       -0.053067233 0.042833783 -0.037707336 -0.10112547
0001b0 f8 11 06 be ca 17 e4 bb 63 ab eb 3b 75 fc 9a bd
       -0.13092792 -0.0069608437 0.0071920617 -0.075676836
0001c0 d9 7f 1d 3d 4c 06 b5 bd df 6c 4a be 77 b9 44 bd
       0.038452003 -0.08839092 -0.19768094 -0.048028436
0001d0 28 1a 92 bd f1 1b 45 bd 7d 6b 91 bd 01 32 0e bc
       -0.07133895 -0.04812235 -0.0710058 -0.008678914
0001e0 f9 46 d6 3c 35 4f 2b bd 34 39 fd bd 19 e6 5e bd
       0.02615689 -0.041823585 -0.12364426 -0.054418657
0001f0 75 9b 07 bb 21 6f b4 3c ba 6d 13 3d 72 b6 f3 bd
       -0.0020692025 0.022025647 0.035993315 -0.11900033
000200 65 d0 d1 3c 57 7a fb bd 15 72 9c bd 9d 47 04 3c
       0.025612066 -0.12279194 -0.07638947 0.008073715
000210 54 e0 bc bd 96 f2 2f be 40 43 84 bd 06 48 65 3d
       -0.09222475 -0.17182383 -0.064581394 0.05597689
000220 e2 59 e1 3c ec b8 1b be 65 e3 24 bd 73 f5 27 be
       0.02750868 -0.15207261 -0.040255923 -0.16402225
000230 7c 73 66 bd 60 46 b4 bc 26 31 9f 3d 26 6a 6b 3b
       -0.05626248 -0.022006214 0.07773046 0.0035921424
000240 c5 b8 ba bd d7 18 d4 bd 3d 8d 20 be a6 80 52 be
       -0.09117273 -0.103563 -0.15678878 -0.20556888
000250 3c e1 0a be 48 91 93 bd 7f 50 93 bd 96 73 1c bd
       -0.13562483 -0.072054446 -0.07193088 -0.03819617
000260 1e c9 8a 3d 9e c6 87 bd 69 88 39 3d 12 4c 0d be
       0.06776641 -0.0662968 0.045296106 -0.1379855
000270 dc 7b ad 3d cf a4 35 be 2e a6 f0 bd 85 7e 04 3d
       0.0847089 -0.1773865 -0.11750446 0.03234722
000280 35 56 65 bd 8b fe 9e bd cf 35 69 3d ea 93 08 be
       -0.055990417 -0.07763394 0.05693608 -0.13337675
000290 59 66 0b 3d ae 28 21 be 15 46 ef bd a4 ef 54 be
       0.034033153 -0.15738174 -0.11683289 -0.2079454
0002a0 8a 75 36 3d b8 41 03 3d 7b 0e 15 be 2c e8 12 be
       0.044545688 0.032045096 -0.14556305 -0.14346379
0002b0 a7 fa fc bd cd 21 b4 bd 00 1d 20 be c0 e7 89 3c
       -0.12352496 -0.087955095 -0.15636063 0.01683414
0002c0 ac d9 4d be 78 64 1b be cf 53 4d bb 54 b9 ed 3c
       -0.20102566 -0.15175045 -0.0031330471 0.029019035
0002d0 d9 56 95 3d 05 3c 11 be b1 f3 97 bd 62 8b 3d bd
       0.072919555 -0.14183052 -0.07419527 -0.046275504
0002e0 7b 82 ea bc 0c 85 07 be 48 fc fb bc 21 b6 fe bd
       -0.028626671 -0.13234347 -0.030759946 -0.12437082
0002f0 dd 60 ad 3d 86 00 c4 3c bf 4f d2 bd d9 2e 1b 3d
       0.08465741 0.02392603 -0.102691166 0.037886474
000300 7c ee f1 3b 66 72 4e bd 68 12 a7 bd 7e 97 4c be
       0.007383166 -0.050402068 -0.081578076 -0.19979665
000310 fb df c9 bd a0 16 8b ba d9 1a a8 3d 15 fc cb bb
       -0.09857174 -0.0010611601 0.08208246 -0.006225119
000320 83 d0 b3 bc bb 88 6a bd 51 24 2f be a4 fd a3 3c
       -0.021950012 -0.057259303 -0.17103697 0.020018406
000330 f6 dd 34 be c6 b0 94 bd ae dc a5 bd ac 97 9a 3c
       -0.17662796 -0.07260279 -0.08098732 0.01887115
000340 d5 b0 fc bc c1 a0 4f be 4b 97 c9 bd 28 36 a2 bd
       -0.030846039 -0.20276166 -0.0984331 -0.07920486
000350 49 09 97 bd ce e3 49 be d0 dd ff bd 63 24 a9 3c
       -0.07374818 -0.19715807 -0.12493479 0.020647233
000360 8e 5a 10 be d4 62 ce 3a 41 4e 95 3c 53 0b 84 bd
       -0.14097044 0.0015746006 0.018225791 -0.064474724
000370 af 25 e6 bc 89 9f 4c be de 54 d3 bd 92 fd cf bc
       -0.02809414 -0.19982733 -0.103189215 -0.025389466
000380 99 be 5d bd 05 ef 8a 3d 47 39 20 be df 3b 21 bd
       -0.054136846 0.067838706 -0.1564685 -0.03936374
000390 bc 22 c2 3a a8 4e eb bd c8 0d 2e be c2 b1 42 bd
       0.0014811377 -0.11489612 -0.16997445 -0.047532804
0003a0 e1 09 8b bd 0a 8e d8 bd 98 b8 6d bd 50 92 d4 bd
       -0.067889936 -0.10573967 -0.05803737 -0.103794694
0003b0 6a f1 1e 3c a3 ec a1 bd 17 64 67 3d 1d 18 a7 bd
       0.009701112 -0.07906463 0.056491937 -0.08158896
0003c0 37 01 e3 bc 72 3f 17 3d e4 c5 47 be 10 4a 8a bd
       -0.02771054 0.03692574 -0.19509083 -0.067524076
0003d0 3b ac 4d bd de 53 0f 3b 00 03 9e 3d 28 23 23 be
       -0.05021308 0.0021870057 0.07715416 -0.1593138
0003e0 78 53 ef bd b2 8e 8c 3c 18 a7 07 be 9d 8f cb 3d
       -0.11685842 0.017157886 -0.13247335 0.099395014
0003f0 d9 4d 17 be ff c5 f0 bd b3 1d 49 bd 6f 41 51 be
       -0.1477579 -0.11756515 -0.04910059 -0.20435117

bias f4 [47]
000000 33 a2 1b 3e a9 51 8b bd 2e 55 65 3d fa 7e bd bd
       0.15198593 -0.06802685 0.055989437 -0.092527345
000010 b0 ba 82 bd 9e 47 17 3d 7c 8d f8 bd c3 c4 23 be
       -0.06383264 0.036933534 -0.12136361 -0.15993027
000020 e5 28 9d 3d 23 16 11 be 3a 51 08 be 2e c0 31 3d
       0.07673816 -0.141686 -0.13312235 0.043396167
000030 15 80 34 3e a5 55 87 bc 6d 99 7a 3d f7 d8 c5 bd
       0.17626984 -0.01652033 0.061181474 -0.096605234
000040 59 76 8d bc a3 3a c5 bc fd 1e 14 be d2 d5 9d bc
       -0.017268347 -0.024075812 -0.14464946 -0.019266997
000050 6c 8c 88 bd 68 4b 36 3d da ec 82 3d fa ff d1 3d
       -0.06667408 0.044505507 0.06392832 0.10253902
000060 3a 85 08 be f5 16 ec 3a b8 c6 35 3c 3e 4a 2e 3c
       -0.13332072 0.0018012213 0.0110947415 0.010637818
000070 dd eb ae bd ff 97 0c bd bb 87 87 bd aa e3 4d 3d
       -0.08541081 -0.034324642 -0.066176854 0.050265945
000080 35 b1 b5 3b 1b 17 f4 bd c1 f2 a1 3e b5 3e 63 bd
       0.0055448064 -0.119184695 0.3163052 -0.055479724
000090 f3 ab 30 be 25 64 0d bc ba 7e 83 be 7d 7a 0c be
       -0.17253093 -0.008629833 -0.25682622 -0.137186
0000a0 94 12 23 bd bb 32 10 be 56 6c 22 be 18 ea 8f 3e
       -0.03981264 -0.14081852 -0.1586164 0.28108287
0000b0 33 0a 8d bc da 6e ac 3d 93 30 88 3e
       -0.017216777 0.08419581 0.2659956

weight f4 [47, 128]
000000 52 54 c1 bd 95 7f b2 bc 46 30 5d bd bd d6 ad bd
       -0.09439911 -0.021789351 -0.054001115 -0.08488224
000010 2a 5b 40 3d 53 bd 84 3d 69 1d a4 bd 59 d0 57 3e
       0.04696194 0.06481423 -0.08013422 0.21075572
000020 fa 72 01 3b 98 ba 91 bd 3f cb 35 3c f0 0e 9b 3c
       0.001975237 -0.07115668 0.011095821 0.018928021
000030 e0 04 13 3c 28 94 09 3d b7 d0 ba bc 16 91 c5 bd
       0.00897333 0.03358856 -0.022804601 -0.096468136
000040 2e b7 a3 bd 93 4e 28 3d be b9 97 bc 71 12 30 bd
       -0.07993923 0.04109056 -0.018521186 -0.042986337
000050 ad 89 02 3e 32 98 9d 3d 69 35 2d 3d 37 a7 da bd
       0.12747832 0.076950446 0.042287264 -0.10676425
000060 b5 85 24 3c 46 3d 2d 3e 0a ec 5d 3d 84 3e 64 bd
       0.010041644 0.16917905 0.054180183 -0.055723682
000070 92 28 23 3e 59 ae c0 bd 01 c6 85 3d 1b 16 0c 3c
       0.15933445 -0.09408254 0.06531907 0.008550192
000080 95 d0 bd 3d 90 af 24 3d 85 bd c3 3d eb 03 f2 3d
       0.092682995 0.040206492 0.09557632 0.118171535
000090 b0 90 85 bd c5 f5 d6 3d 93 c4 04 3d fd 5d 1e 3e
       -0.065217376 0.104960956 0.03241403 0.15465541
0000a0 3b 0a 88 3c 05 28 59 3e d7 91 d3 bd ad e2 03 3e
       0.01660644 0.21206672 -0.10330551 0.12879439
0000b0 5d 18 c0 3d ee 3b 76 bd e9 93 3c bd be dc 2c 3d
       0.09379647 -0.060115747 -0.046039496 0.042202704
0000c0 2f aa f1 3a c2 bb ee 3d 9b 55 a4 3d 3f 57 08 3e
       0.001843756 0.11656906 0.080241404 0.13314532
0000d0 e1 24 10 3e c7 a9 02 3d f0 91 a2 bc 34 4d a1 bd
       0.14076568 0.031900194 -0.019844979 -0.078760535
0000e0 95 f9 59 3d 39 9b 69 3d fc 9f b1 bd 2e df 2f bc
       0.053216536 0.057032797 -0.08673093 -0.0107343625
0000f0 fc fa 0b 3d a3 c7 84 bc 9a 13 c3 3d ec 3a 37 3d
       0.034174904 -0.016208475 0.09525223 0.044733927
000100 b2 7a f4 bd 5e 33 b8 bd 9d 89 88 3c 23 18 26 3e
       -0.11937465 -0.089941725 0.016667182 0.16220145
000110 65 34 c2 3d b0 6a d1 3d 37 e8 67 3d dc 04 01 3e
       0.0948265 0.10225427 0.05661794 0.1259951
000120 51 05 ae 3c bc 6b a5 3d 6f a9 9c 3d 29 48 4c bd
       0.02124277 0.08077189 0.076495044 -0.049873505
000130 98 a4 e7 39 d6 d5 d2 3d 6c d7 00 3d 24 cf 59 3d
       0.00044182385 0.10294692 0.031455442 0.05317606
000140 19 4f a6 3c ef 5c 04 bb f4 9e 8c 3c d0 91 e2 bd
       0.020301389 -0.0020196994 0.017165639 -0.11062968
000150 e0 2e 91 3d db 59 0a bd eb 13 50 3d 84 0a 40 3d
       0.07089019 -0.0337771 0.050800245 0.04688503
000160 e5 1b 69 3c 52 20 b5 bd b3 32 55 3e 89 8b b4 bc
       0.014227842 -0.08844055 0.20820121 -0.022039192
000170 d8 8d 32 3e 92 5d ba 3a 9c 46 6e 3d f2 3b 47 3e
       0.17436922 0.001421856 0.058172807 0.19456461
000180 2a a7 3b bc 17 b1 40 3e 9c b8 0d bd bc e4 90 bd
       -0.011453429 0.18817554 -0.034599885 -0.070748776
000190 ca 4f 2b 3e 12 54 a0 bd 28 7d 80 bd 8e 55 c4 bc
       0.16729656 -0.07828535 -0.06273872 -0.023966577
0001a0 64 01 cb 3b 92 ec d1 3d fb 77 9a 3d 7e 5e 43 bd
       0.006195234 0.102502 0.07542416 -0.047697537
0001b0 54 8e ed 3d ca 66 a2 bd 97 c3 2d 3c c9 37 ed bc
       0.115994126 -0.07929762 0.010605714 -0.028957264
0001c0 22 40 17 be 8b 80 cd 3d 7d cf 26 bc 00 34 3b 3e
       -0.14770558 0.10034283 -0.010181305 0.18281555
0001d0 06 16 4b 3c 9f 1b a7 3d 50 e5 09 bd 0c 8c cd 3c
       0.0123953875 0.08159565 -0.033665955 0.025091194
0001e0 90 18 b3 bc 25 50 a8 bd 9d cb 91 bd be f0 59 3d
       -0.021862298 -0.08218411 -0.07118914 0.053208105
0001f0 0e 0f 90 3d e4 8a 38 3d a3 09 20 bd aa 66 b1 3b
       0.070341215 0.04505433 -0.03907169 0.00541385
000200 5e 1f 72 3d 0f 18 19 3e c3 da 1c 3d fc 1f 88 bd
       0.059111945 0.14950584 0.038294565 -0.066467255
000210 30 d9 21 3e c2 c6 7f bc 3a 64 69 bb 9b 15 ed bb
       0.15805507 -0.015611352 -0.0035612718 -0.0072352416
000220 22 9d 00 3d 2f dd 00 3e 68 0c c2 3d 27 99 84 bc
       0.031399854 0.12584375 0.094750226 -0.01618631
000230 5d 2a 2d 3d 8e 42 b2 bc 52 b2 70 bc 95 d3 0b 3e
       0.04227673 -0.021760251 -0.014690952 0.13654931
000240 23 3b 5b 3d e0 01 b4 3e 9e f9 9f bd 27 dc 4c 3d
       0.053523194 0.3515768 -0.078112826 0.05001464
000250 25 4b b1 3d e2 b0 31 3d b8 45 5a bd eb 18 bb bd
       0.08656911 0.04338158 -0.053289145 -0.09135612
000260 64 24 60 bd f5 a0 27 3e 5a 8e e5 3d df a2 13 bb
       -0.054722205 0.16369994 0.11208792 -0.0022527499
000270 02 92 72 bd 48 e5 19 be b7 9f 18 3e 48 61 d2 3d
       -0.059221275 -0.1502887 0.14904676 0.10272461
000280 b1 d4 b2 3c 49 ed a2 bd 21 0f 86 3a ac e8 1e 3d
       0.021829935 -0.07955415 0.0010227897 0.038796112
000290 d5 ae b4 3d c8 85 0b 3d 60 4f ab 3d 8a da fb 3d
       0.08822409 0.03406313 0.08364749 0.122975424
0002a0 56 01 a3 bd 7c 81 97 bd cf 13 79 3d c9 b2 1e 3e
       -0.07959239 -0.07397744 0.060809907 0.15497889
0002b0 2e d2 a5 3d b1 41 8a 3d b8 8f 19 bd ff 80 e8 3d
       0.08096729 0.06750811 -0.037490577 0.11352729
0002c0 34 09 01 be ed 8c 87 bd f4 9f 0d be 7b 96 b2 3d
       -0.12601167 -0.06618676 -0.13830549 0.08720108
0002d0 2c 72 59 3e 45 9b e2 3d 88 05 40 3d b9 99 e6 bd
       0.2123496 0.110647716 0.046880275 -0.11259789
0002e0 2b 86 a7 3d 50 ea c2 bd e8 c5 8d be 1b 42 11 3c
       0.081798874 -0.09517348 -0.27690053 0.008865858
0002f0 ee 22 11 3e 03 cc 1d 3e 8b fd 74 3c f4 5e 90 3d
       0.14173481 0.15409856 0.0149530275 0.07049361
000300 fc a3 55 be da 00 40 bd 06 51 aa bb ca 4b fe bd
       -0.20863336 -0.046875812 -0.005197647 -0.12416799
000310 55 7c 97 3d 80 6a 72 3e 38 72 ce 3d 5a 4c 15 3e
       0.07396761 0.23673439 0.10080379 0.14579907
000320 f2 ce cd 3d c3 d7 cb bd 0e 01 01 be 85 26 d3 3d
       0.10049237 -0.09953263 -0.12598059 0.103100814
000330 65 af df bd f2 0d e7 3d 6c 5b cc bc 09 30 0f be
       -0.10922126 0.11281957 -0.024945937 -0.13983168
000340 a5 03 4a bd cc 66 17 3e f5 81 d0 3d 54 64 b7 3d
       -0.049319882 0.14785308 0.10181037 0.08954683
000350 3f 37 7a 3a 98 c4 de bc 2e 09 83 3d 90 ea 97 3d
       0.00095449755 -0.027193353 0.06398235 0.07417786
000360 58 73 81 bd 78 3c c1 3d f7 bf 65 be 7b 53 33 b9
       -0.06320828 0.094353616 -0.2243651 -0.00017101869
000370 df 42 c8 3d 69 93 3e 3d 51 f3 00 3e 8b 30 86 3e
       0.0977838 0.0465273 0.12592818 0.2620891
000380 13 3b 0d 3d e5 2d 1a bc 5c 5b 47 3d 14 1f 10 bd
       0.034480166 -0.009410356 0.04867111 -0.03518589
000390 29 63 98 3d fb b3 10 3d 9c 65 d3 3c 1a dc 00 3d
       0.07440788 0.035327893 0.025805287 0.031459905
0003a0 59 ae 20 3e 11 af 20 be 17 26 f6 bd 7f 5f 71 3d
       0.15691508 -0.15691783 -0.12018984 0.058928963
0003b0 d4 48 95 3d e3 82 75 bb f9 f8 d0 bd 22 c5 2d bb
       0.072892815 -0.0037462048 -0.10203738 -0.0026515205
0003c0 af 01 7b bc a4 bf 1f 3e 9d 8b a8 bc 4b a5 ac bd
       -0.015320226 0.15600449 -0.020574385 -0.08429965
0003d0 c4 dc ac bc b7 1e f4 3d fa 24 90 bd 25 9d 4b be
       -0.021101363 0.11919921 -0.07038303 -0.19884165
0003e0 40 07 3c 3d 4a 08 a9 3d 2b d3 92 bd a2 48 dc bd
       0.04590535 0.08253534 -0.07169183 -0.10756041
0003f0 9b 56 71 3d 72 32 16 3c a7 75 da bb a4 af cc bd
       0.058920484 0.009167301 -0.0066668573 -0.09994438
