Graph Neural Network/model.pth (torch, 839220 bytes, 6 tensors)

bias f4 [128]
000000 ac 82 a4 bd 73 aa 24 bd bb f4 83 bd 35 73 68 bc
       -0.08032736 -0.040201616 -0.06443163 -0.014187624
000010 31 81 2e bd c7 36 b6 bc 0d 3f ce bd db 28 ab bb
       -0.042603675 -0.022242917 -0.1007062 -0.005223376
000020 bd a8 aa bd 22 a3 d0 bd c9 5b 60 bd 3a 6a ac 3c
       -0.083329655 -0.10187365 -0.054775033 0.021046747
000030 80 ab 8c 3c 01 8f 14 be fa 11 c6 bd 5c 95 d9 bd
       0.017171621 -0.14507677 -0.096713975 -0.10624191
000040 24 b6 3f bc 2f ec 54 bb ea fc f5 bc be 6d b3 bd
       -0.011701141 -0.003248941 -0.030027825 -0.08761166
000050 02 01 b2 bd 54 bb ac bd 35 b9 44 3d bd 3c f0 bd
       -0.086915985 -0.084341675 0.04802819 -0.11730335
000060 01 81 a8 3c bb 0a ec 3c 7b 4c f0 bd 99 6c aa bd
       0.020569326 0.02881371 -0.117333375 -0.083214946
000070 3e af 81 bc 59 38 3d bd 0b 19 e9 3c e9 85 c7 bd
       -0.015830632 -0.046196315 0.028454324 -0.09742338
000080 ac 3c 5d bc 2d e6 05 be b4 bb 18 3e da 01 be bd
       -0.013503235 -0.13076086 0.14915353 -0.09277697
000090 2d d0 87 bc 38 73 a2 bd 31 62 c5 bd ed a7 dc bc
       -0.016578758 -0.079321325 -0.09637869 -0.026935542
0000a0 8e 6f 9c bd 65 3d d7 3d 24 4e cf bd 84 23 f1 bd
       -0.07638465 0.10509757 -0.10122326 -0.11774352
0000b0 d7 6a e3 bc 6c d9 00 bd 8b 10 8a 3d bb ea 55 3d
       -0.027760906 -0.03145735 0.067414366 0.05222581
0000c0 df c7 e0 bc a6 00 1c bd ec 94 88 bd a5 9f 80 bd
       -0.027439056 -0.038086556 -0.066690296 -0.0628045
0000d0 59 1b 9b 3c 01 ad b5 bd cf 55 d8 bd a9 4d 7a 3d
       0.018933939 -0.088708885 -0.10563242 0.06110922
0000e0 d5 11 bd bd 33 e1 8c bd 2a bc d0 bd 2d 4e 8c bd
       -0.09231917 -0.06878891 -0.101921394 -0.06850848
0000f0 6f 39 3c 3d 39 57 a6 bd fe c2 bc bd 40 60 5b bd
       0.04595321 -0.08122105 -0.09216879 -0.053558588
000100 d2 74 d4 bd 7d a9 9e bd 6f 40 97 bd d2 47 70 bd
       -0.10373844 -0.07747171 -0.073853366 -0.058662243
000110 89 3c c4 bd 8b 84 6e bd 5c 95 41 bd 02 0d c5 bd
       -0.09581859 -0.05823187 -0.04726158 -0.09621622
000120 3d 6f f9 bc 21 5f 53 bd 19 1b 67 bd e8 20 f8 3c
       -0.03044855 -0.051604394 -0.056422327 0.030289128
000130 b3 00 54 bd 16 61 8a bd 2e cd b5 bd 2e a6 ac bd
       -0.05175848 -0.06756799 -0.088770255 -0.08430134
000140 c1 99 93 bd 67 c8 a5 bd 52 eb 27 bd 2d fe c9 3b
       -0.072070606 -0.08094864 -0.040995903 0.0061643333
000150 00 00 56 bd d3 8a 57 bd 99 6c 32 bd fe 1e aa bd
       -0.052246094 -0.052622627 -0.043560598 -0.083066925
000160 49 97 c0 bd 01 e9 1f bd ef 1d 9c bd 54 7d 55 bd
       -0.09403855 -0.03904057 -0.07622897 -0.052121475
000170 60 27 72 bc 20 5c 57 bd 01 91 fc 3c dc c8 c4 bd
       -0.014779896 -0.05257809 0.030830862 -0.096086234
000180 4b 96 9d bd c0 0a 2c 3c 9b 55 ea bd 43 91 8e bd
       -0.07694682 0.01050061 -0.11442109 -0.069613
000190 39 19 8a bd 66 dd 66 bd 45 27 cc bd 11 13 93 bd
       -0.06743092 -0.056363486 -0.099684276 -0.07181371
0001a0 2b 65 35 bd a5 8b ec 3c 6b d1 9b bd 72 5d b6 bd
       -0.044285934 0.028875181 -0.07608303 -0.08904542
0001b0 8f d6 91 bd 76 05 4a bd a2 b6 a4 bd 90 80 10 be
       -0.07121002 -0.049321614 -0.08042647 -0.14111543
0001c0 00 bd b6 bd e4 fe bb bd b1 71 54 3d ab 8b ab bd
       -0.08922768 -0.09179476 0.051866237 -0.08376249
0001d0 5e c0 63 bd 15 f7 35 bd fd 90 14 bd 00 47 22 bd
       -0.055603378 -0.04442509 -0.036271084 -0.039618492
0001e0 1c f7 c6 bd ee e0 a3 bd ab f1 2d bd ee f5 4a bc
       -0.09715101 -0.08001886 -0.0424668 -0.012387736
0001f0 78 db f5 3c e9 a1 c0 bd 95 a6 7a bd da 87 c5 bd
       0.030011877 -0.09405882 -0.06119402 -0.09645052

weight f4 [128, 1433]
000000 6c 91 c9 bb 01 56 ad 3d 89 d2 18 3d ac db ad 3d
       -0.006151369 0.084636696 0.037310157 0.08489165
000010 c4 ac 21 3d 7b 99 42 3d 2c 71 ad 3d 60 00 93 3d
       0.039471403 0.04750965 0.084688514 0.07177806
000020 10 30 90 3d 95 30 84 3c 0d af 0b 3d 0f e4 b1 3d
       0.07040417 0.016136447 0.03410249 0.08686077
000030 b1 70 05 3d b3 30 c8 3d 57 9a 62 3d 9f 69 34 3b
       0.032578174 0.09774914 0.05532297 0.0027528775
000040 04 15 0e 3d 5a 0f e2 3d 5e ff 87 3d fa 57 e9 bd
       0.03468801 0.11038084 0.06640504 -0.11393733
000050 97 98 9c 3d 99 7f b9 3d 4a 53 8b 39 86 30 a5 3d
       0.07646292 0.090575404 0.000265742 0.08065896
000060 b2 27 a3 3d d1 2c c2 3d 4b 1f 94 3d a6 c3 48 3d
       0.07966556 0.09481204 0.07232531 0.04901471
000070 73 c8 be 3c 1b 7f 4b 3d 41 9b 85 3d 38 21 51 3d
       0.023288941 0.049681764 0.06523753 0.05105707
000080 3b 48 81 3d ae 1e 38 3c a8 d0 dd 3c 1e cf 97 3d
       0.06312605 0.011237783 0.027077034 0.07412551
000090 5b a7 56 3c 18 87 ed 3c e7 ba f0 3c fc 4e a3 3c
       0.013101424 0.028995082 0.029385997 0.019935124
0000a0 4c 23 72 3d 2e 9a 81 3d 52 ac ee 3c f9 b9 a0 3d
       0.059115693 0.063282356 0.029134903 0.078479715
0000b0 95 b6 03 3d 21 27 df 3d 13 21 9a 3d 40 d9 a1 3d
       0.032156546 0.10896135 0.0752584 0.07902765
0000c0 89 c9 dc 3a 4a ee cb 3d 6c df d4 3d 2d 9b 50 3d
       0.001684473 0.099575594 0.10394177 0.050929237
0000d0 37 75 df 3d 24 08 58 3d 66 11 40 3d 1a a7 d4 3d
       0.10911029 0.05274214 0.046891592 0.103834346
0000e0 56 67 cc 3d b6 2c 01 3d 37 a9 58 3d 53 3e 7c 3b
       0.09980647 0.03153678 0.05289575 0.0038489297
0000f0 f4 b0 7d 3b e5 3c 84 3d 1e fd 8a 3d b7 6b 3b 3c
       0.0038710209 0.06456927 0.067865595 0.011439255
000100 df e0 2d 3d 6c 12 76 3d c2 71 97 3d bf b3 41 3d
       0.042450782 0.060076162 0.073947445 0.04729056
000110 c2 cc e2 3d 7b 1e c0 3b 48 83 90 3d a7 8e 9a 3d
       0.11074211 0.0058630086 0.0705629 0.0754674
000120 ff 80 81 3d 6a 4b 97 3d 86 11 32 3d 5d 65 da 3b
       0.06323432 0.07387431 0.043473743 0.0066649155
000130 71 f7 99 3c 30 5a 9a 3c 9c 05 bf 3b 9a 8d 8e 3c
       0.018794747 0.018841833 0.005829526 0.017401505
000140 3d b7 b2 3d c0 88 b3 3d ef 9f 32 3d 86 c6 d5 3d
       0.08726356 0.08766317 0.043609556 0.10438256
000150 8b da 86 3c 69 8d 17 3d fc da d8 3d 3e be 9f 3d
       0.016461631 0.037000094 0.10588643 0.07799958
000160 77 4e 15 3c 0e 6f b2 3d e1 50 b6 3d 96 03 55 3d
       0.009112946 0.08712588 0.08902145 0.052005373
000170 f7 e2 b6 3d 19 56 a8 3d af a5 9e 3d 7f c4 a1 3d
       0.08930009 0.08219547 0.077464454 0.07898807
000180 49 20 27 3c f2 b7 6b 3d 94 7b 8c 3d 54 e8 87 3d
       0.0102005685 0.05754847 0.06859508 0.0663611
000190 c1 d4 92 3d e9 9f b1 3c a3 6b ba 3d c6 9c 89 3a
       0.07169486 0.021682696 0.09102561 0.0010498993
0001a0 ac 19 7c 3d 98 b3 ce 3d df 6d 16 3d 82 32 8a 3c
       0.06154792 0.100928485 0.036725875 0.016869787
0001b0 cb 54 2f 3d 48 da 5e 3d 6a ff bf 3b 7d 21 d7 3d
       0.042805474 0.054407388 0.005859305 0.10504434
0001c0 e5 1a 6a 3d d4 40 67 3d 17 e3 a5 3d f9 b4 d1 3d
       0.057154555 0.05645831 0.080999546 0.10239596
0001d0 26 b7 91 3c 5e 59 e7 3b 64 fc 94 bb 4c d9 8a 3d
       0.017787527 0.007060214 -0.004546689 0.06779727
0001e0 90 a3 41 bb d1 6d db 3c 09 77 32 3d f5 f4 63 3d
       -0.0029546954 0.026785763 0.043570552 0.05565353
0001f0 c4 bf c4 3d 26 d6 d3 3d 67 0f 89 3d 28 2a d4 3d
       0.09606889 0.1034358 0.06692391 0.10359603
000200 29 25 33 3d 99 65 cb 3d c6 06 c0 3d 67 f5 11 3d
       0.04373661 0.099314876 0.09376292 0.035634425
000210 75 79 74 3d b1 01 b6 3d 36 b8 0b 3c cc d4 8e 3d
       0.059686143 0.08887041 0.008527806 0.069741815
000220 d7 7b 42 3d 11 5f 93 3d 68 8e cd 3d 8c a1 cf 3d
       0.047481384 0.07195867 0.100369275 0.101382345
000230 f6 44 36 3d 9c b2 d7 3d 46 5c b2 3d d4 a8 ac ba
       0.04449936 0.10532114 0.08709006 -0.0013172873
000240 ac c3 45 3d d6 f3 83 3b a0 f9 67 3d d5 0f 97 3d
       0.04828231 0.0040268702 0.056634545 0.073760666
000250 10 25 69 3d f9 4b ef 3c f0 14 8d 3d 5b fb a5 3d
       0.05692011 0.029211031 0.06888759 0.08104583
000260 77 93 b0 3d 28 c7 c3 3d 2b a3 47 3d 17 b5 55 3d
       0.08621877 0.095594704 0.048739593 0.052174654
000270 24 0b 97 3c 93 76 6d 3d 65 9d 76 bb 3a 60 89 3d
       0.01843793 0.05797441 -0.0037630436 0.06707807
000280 5d dd 83 3c 56 40 4c 3d 80 1c 28 3d f9 2e dd 3d
       0.016096765 0.049866043 0.041042805 0.10799975
000290 18 87 6c 3d 96 49 7c 3d 12 fd 13 38 7e ef b9 3d
       0.057746023 0.061593615 3.528322e-05 0.09078883
0002a0 ae 27 c2 3d 11 dc b5 3c 43 a3 ab 3d 8a 24 b9 3c
       0.094802245 0.022199662 0.08380749 0.022600431
0002b0 26 32 3d 3d 3f 5e 17 3d ad 15 e8 ba 9c 28 d8 3b
       0.046190403 0.036955114 -0.0017706655 0.006596638
0002c0 17 db 80 3d 50 fd 87 3d 94 52 2c 3a 77 40 63 3d
       0.06291788 0.066401124 0.00065735844 0.0554814
0002d0 dc 12 7e 39 bb 90 a1 3d 60 02 8a 3d e7 8f aa 3d
       0.00024230353 0.07888933 0.06738734 0.083282284
0002e0 c3 c4 1e 3d 90 e2 84 3d 58 ae 4b 3d 4f c7 5f 3d
       0.038761865 0.06488526 0.049726814 0.054633435
0002f0 03 c5 60 3d 15 a3 a8 3d 8b 26 c4 3d 15 da f9 3b
       0.054875385 0.082342304 0.09577664 0.0076248744
000300 64 fd 9c 3d 64 6a 92 3d bc ba 6c 3c 0a ce 5d 3d
       0.07665518 0.07149199 0.014448818 0.054151572
000310 99 f1 c5 3d bf be 56 3d 83 ca c1 3d 99 25 d0 3c
       0.09665222 0.052428003 0.09462454 0.025408553
000320 4b e6 cf 3d 45 71 3f 3d b2 ce cd 3d 1f ba b6 3d
       0.10151347 0.04673888 0.100491896 0.089222185
000330 31 8e 9b 3b a8 5c 67 3d f0 ab ff 3a 3c 8a 0e 3c
       0.004747175 0.05648485 0.0019506197 0.00869995
000340 43 d8 70 3d fd dc 59 3c 02 ac c2 3d 8f 85 d6 3d
       0.058799993 0.013297317 0.09505464 0.10474693
000350 85 d2 a8 3d a5 e7 7d 3d 1d 8b 80 3c ab 1d 8e 3d
       0.082432784 0.06198849 0.015691334 0.069392525
000360 70 fd e8 3b c6 1c bf 3d 0d 55 01 3d aa c9 d7 3d
       0.00711029 0.0933166 0.03157525 0.10536511
000370 48 9b 82 3d 75 aa 90 3d 42 d9 76 3d 45 71 92 3d
       0.06377274 0.07063762 0.060265787 0.07150511
000380 77 c3 9c 3d 4a f4 b7 3d 15 fd 2b 3d 9a be 32 3d
       0.076544695 0.08982141 0.041989405 0.043638803
000390 ac 70 3c 3d 53 3f da 3d 88 c5 a2 3b 44 f1 d4 3d
       0.04600589 0.106566094 0.004967395 0.1039758
0003a0 7a 9e 95 3d 38 26 cc 3d 1c 21 8e 3d 7d 60 d9 3d
       0.07305618 0.09968227 0.06939909 0.10614107
0003b0 db 5d 5d 3d 04 8c e0 3d 4e a9 10 3d e2 23 c3 3d
       0.054044586 0.10964206 0.03531771 0.095283285
0003c0 48 67 b6 3d 13 c7 a9 3d 52 2e b1 3d 83 d4 71 3c
       0.08906418 0.082899235 0.08651413 0.014760139
0003d0 37 d1 82 3d 21 8d 37 3d d2 89 a0 bb 4d 9f 9f 3d
       0.06387561 0.044812325 -0.004899242 0.07794056
0003e0 4c 92 e1 3d c9 a0 4b 3d 29 af 78 3c bd 32 16 3d
       0.11014232 0.049713884 0.01517848 0.03666948
0003f0 78 3c 30 3c 75 09 79 3c 1a e3 83 3c 6b 2a 97 3d
       0.010756604 0.015200009 0.016099501 0.073811375

bias f4 [128]
000000 64 9e 4d bd 66 d7 44 bc 29 d8 a0 3c 02 e2 8e bd
       -0.05019988 -0.012014246 0.019634323 -0.06976701
000010 76 0e 02 3d 2c dc c7 bc bd a0 23 bd d1 f9 39 bd
       0.031752072 -0.024396978 -0.039948214 -0.04540426
000020 71 b6 1e bd f2 09 4e bc 43 b2 7f 3c 21 ee 4f bd
       -0.03874821 -0.012575613 0.015606466 -0.050764207
000030 9b da d9 bd 1f c3 81 bd 86 4f 8e bd d3 33 9a bd
       -0.10637399 -0.063360445 -0.06948762 -0.07529416
000040 ac 16 0e bd ea 73 3a bd 9d cc 24 bd 4f ce ee bc
       -0.03468959 -0.0455207 -0.040234197 -0.02915111
000050 63 ab dc bc 55 9e 41 bc 0a 9b 87 bc c7 80 12 3c
       -0.026937192 -0.011817534 -0.01655342 0.008941836
000060 d5 fb 55 bd 2d ce 10 bd 57 8f 47 bd 8b 54 a6 bc
       -0.05224212 -0.035352875 -0.048720684 -0.020303985
000070 46 aa d3 bc 90 f2 da bc 0c dc f9 3c 9b d9 26 bd
       -0.025838029 -0.026726991 0.030500434 -0.04073487
000080 68 89 92 3b df e3 8f bd 50 5f cd bc e4 0f 50 bc
       0.0044719465 -0.07025885 -0.025069863 -0.012699101
000090 f0 8c 69 bd 28 1f 0e bd e4 8f 77 bd 22 0a 43 bd
       -0.057019174 -0.03469768 -0.06043996 -0.047617085
0000a0 04 6f 87 bd 5b 8d 71 bd 78 94 26 3b dc 05 3c bd
       -0.066129714 -0.058972698 0.0025418084 -0.045904025
0000b0 9b 3d 1b bd 82 29 87 bc 14 18 9b bd 72 34 81 bd
       -0.03790055 -0.016499285 -0.07572952 -0.06308831
0000c0 de f7 42 bd a5 0d ca bc 9b 76 88 bd 3e b8 37 bd
       -0.047599666 -0.02466471 -0.06663247 -0.04485344
0000d0 50 79 20 bd 29 87 61 bd 00 1d 82 bd 3d 90 ef bc
       -0.039178193 -0.05506054 -0.063531876 -0.029243583
0000e0 6f 70 05 bd 32 1c 75 bd f6 e9 25 bd 8e 52 66 3a
       -0.03257793 -0.059841342 -0.040506326 0.00087861053
0000f0 12 77 83 bd 94 06 79 bd d0 ae d0 bb 24 f7 8d bc
       -0.06419195 -0.06079729 -0.0063684955 -0.01732976
000100 33 cf b1 3c 36 3d b0 3c 74 ec b4 bd 7a 96 35 bd
       0.021705246 0.021513563 -0.08834162 -0.04433296
000110 cb c6 0c bd 24 04 33 bd 6f 3f bf bc 64 9e 5d bd
       -0.03436927 -0.04370512 -0.023345677 -0.05410613
000120 c4 86 86 bd ca 81 db bc b3 07 8d bd 19 52 b6 bc
       -0.06568673 -0.026795287 -0.06886234 -0.022255944
000130 13 5a 57 bd 5b 2e a7 bd fd 8b 47 bd 50 82 09 bd
       -0.052576136 -0.081631385 -0.048717488 -0.03357154
000140 39 76 d3 bc 29 8a 69 bd e6 76 8c bd 0f 86 79 bd
       -0.025813209 -0.057016525 -0.068586156 -0.060918864
000150 84 34 4c bd 7d 48 9b bd a4 5d 53 bd a6 a3 fe bc
       -0.04985477 -0.075821854 -0.051602975 -0.031083893
000160 04 91 93 bd ba e6 8a bd bb db 44 3d e5 57 5a bd
       -0.07205394 -0.06782289 0.048061114 -0.05330648
000170 35 61 2e bd 7e f6 77 bd f6 96 87 bd 13 1f 57 bd
       -0.042573173 -0.060537808 -0.066205904 -0.05251987
000180 30 60 66 bd 9e 56 8f bd 5e 85 c9 bb 72 4d eb bc
       -0.056244075 -0.06998943 -0.006149932 -0.028723452
000190 59 72 6c bd 35 57 1d bd 10 d6 68 bd 01 c4 8f bd
       -0.057726238 -0.038413245 -0.05684477 -0.07019807
0001a0 a7 72 a8 bd ad b1 c6 bc bb ba be bc ac 7b 7a bd
       -0.08224993 -0.024254644 -0.0232824 -0.0611531
0001b0 f5 fd 5d bd 21 1e a3 bd ec 80 67 bd 5c 7e 7a bc
       -0.05419727 -0.07964731 -0.056519434 -0.0152889155
0001c0 b3 03 58 bd 46 7a 8b bb bb cd 48 bd c4 1e 33 bd
       -0.052737903 -0.0042565195 -0.049024325 -0.043730512
0001d0 6b 5f ed bc df 84 7c ba ff 6e ba 3c f3 e8 0c bd
       -0.028976163 -0.00096328364 0.022758005 -0.034401845
0001e0 b8 a1 1b bd fc 9e 68 bc be 67 8f bd 74 bd 51 bd
       -0.037996024 -0.014198061 -0.07002209 -0.051206067
0001f0 3e c0 17 bd 9f 45 91 bc d7 4b 96 3c 83 b5 63 bd
       -0.03704857 -0.017733393 0.01834671 -0.055593025

weight f4 [128, 128]
000000 18 f2 8a bd e2 aa c3 3b 39 39 d4 bd f5 8b bf bd
       -0.06784457 0.0059712986 -0.10362477 -0.093528666
000010 f1 40 ab bd 8b cc b4 3d 55 71 65 bd fc 91 ac 3b
       -0.08361996 0.08828076 -0.056016285 0.005266426
000020 97 7f ce 3b 03 3b 2d 3d 02 1b 0a 3d 17 0a fd 3d
       0.006301831 0.042292606 0.033717163 0.1235544
000030 05 ba a5 bd 6f c7 2e bd 9e 0b 77 bd c0 99 f5 bd
       -0.08092121 -0.042670663 -0.060313813 -0.11992216
000040 34 e9 c3 3c 1e db 17 bd 6b 9c d2 bb c4 9d 54 bd
       0.02391491 -0.0370742 -0.006427338 -0.05190827
000050 8a 68 6d bd e8 e1 fa bd 91 8c 82 3c de 55 c7 3c
       -0.057961024 -0.122501194 0.015936168 0.024332937
000060 9c 11 c1 bd 94 6e 8c bd 1a 4b b5 3d 89 53 77 3d
       -0.09427187 -0.068570286 0.08852215 0.0603824
000070 72 6d 43 3d 3e 87 0d be b1 9e 28 be b4 50 34 be
       0.047711797 -0.13821122 -0.16466786 -0.17608911
000080 ac e9 c1 bd 31 12 c5 3d 98 21 86 3d 97 cc f6 3c
       -0.094683975 0.0962261 0.06549376 0.030126853
000090 60 00 1a be 73 10 1c bd 53 71 72 3b 00 0a 11 3d
       -0.15039206 -0.038101625 0.0036993816 0.035409927
0000a0 25 89 90 bd ab b9 eb 3d 40 b1 90 3c 9f 63 db 3d
       -0.07057408 0.11510023 0.017662644 0.107123606
0000b0 38 2f 09 be 0f 7d 81 bd fb 4b e5 bc 45 bc d9 bd
       -0.13396919 -0.06322681 -0.027990332 -0.10631613
0000c0 5b c7 c0 bd 82 f6 8c bd 4f 16 a8 bd a8 d0 5f bd
       -0.09413024 -0.06882955 -0.0820738 -0.05464235
0000d0 a2 6f 2b 3d 87 e7 93 bd 18 24 d1 bc e9 72 11 3d
       0.04185451 -0.07221895 -0.025529906 0.035509977
0000e0 e0 d4 5c bd ba f5 83 bd 78 e2 a8 3b ff 98 6c bd
       -0.05391395 -0.06443353 0.0051539503 -0.057763096
0000f0 df f1 9f bc 3f 4b 93 3d 11 c5 ab bb b9 6b a0 bd
       -0.019524513 0.071920864 -0.005241998 -0.078330465
000100 4f 57 9c bd 0a 32 90 bd dd 6b 13 bc eb 77 b2 bc
       -0.0763384 -0.07040794 -0.008997885 -0.021785697
000110 2c ce 05 be 03 e2 cb 3d 6d 21 33 bd f6 28 21 bd
       -0.1306693 0.09955218 -0.04373305 -0.039345704
000120 ea 20 93 3d 1d 4a 07 be 79 98 95 bc 27 c9 01 be
       0.07184012 -0.13211866 -0.018261181 -0.1267439
000130 ad 81 dd bd ef 4d 18 3d a4 fa 92 3d 25 c4 79 bd
       -0.10815749 0.0371837 0.07176712 -0.060978074
000140 0f 7f 3c be 64 e1 38 3d f1 5c ed bd c1 d2 c2 bd
       -0.18407844 0.045136824 -0.11589993 -0.09512854
000150 c9 ab 99 bd 58 86 04 be f2 d6 b4 bc e1 23 9f 3d
       -0.075034685 -0.12941873 -0.02207515 0.07770515
000160 10 49 50 3c 83 e9 9f 3c 7e 4d 36 3d be d5 b9 bd
       0.012712732 0.019520527 0.044507496 -0.09073971
000170 2b 6d bb 3b a7 e3 15 bd 10 7f 16 be a1 cc 37 3c
       0.005719801 -0.03659406 -0.14696908 0.011218221
000180 22 7d f2 3d a6 45 e3 bc d4 c1 07 be 0b 28 13 be
       0.118402734 -0.027743172 -0.13257533 -0.14370744
000190 21 88 2d be 77 ab e8 3c 7a 7d 5b bd 03 e3 eb bd
       -0.1694646 0.028402073 -0.05358646 -0.115179084
0001a0 44 fd 34 be b5 32 89 3c 53 2e a7 bd 16 e9 ef bc
       -0.17674738 0.016747812 -0.081631325 -0.029285949
0001b0 b0 2f 14 be d7 a5 ab 3d 8a 86 f3 bd 1b bb 90 bd
       -0.14471316 0.08381241 -0.11890896 -0.070669375
0001c0 5b da f5 bd 0d fa 76 3d 99 fc 8d 3b 6a 51 61 3b
       -0.120045386 0.06029706 0.0043330905 0.0034380802
0001d0 5a 92 49 3d 11 ba 6b bd 61 5b 02 be 5a 0a 85 3b
       0.049211837 -0.057550494 -0.12730171 0.004060072
0001e0 b3 0c cb bd 9e d7 ce 3d f9 d0 2d be bc c6 2b bd
       -0.099145316 0.100997195 -0.16974248 -0.041937575
0001f0 96 3d 4c 3d 82 18 39 bd e1 2b 0f be 80 fd 33 3d
       0.04986342 -0.045189388 -0.13981582 0.04394293
000200 51 ad 9a 3d 94 82 a1 3d 54 b5 26 3d 17 1c ef ba
       0.07552589 0.07886234 0.04070027 -0.0018242624
000210 0e d2 67 bc 02 a2 c0 bc 3b d8 0e 3d 2a e1 ae 3d
       -0.014149202 -0.023514751 0.034874182 0.085390404
000220 a6 f1 be bd 9a 73 eb 3c aa 3c 26 bd 16 99 d7 bd
       -0.093234345 0.028741647 -0.040585198 -0.10527246
000230 bc 9b 86 3d 21 2e 69 3d d3 00 1e be f4 1c b5 bc
       0.06572673 0.056928758 -0.15430002 -0.022108532
000240 a4 c4 a2 bd c9 23 4a be 85 9f 98 bc 28 40 7d bd
       -0.079476625 -0.19740213 -0.018630752 -0.061828762
000250 c3 72 2e bd 05 c0 01 be 36 7a 81 3d 65 7d 43 bd
       -0.042589914 -0.12670906 0.06322138 -0.047727007
000260 f1 d2 90 3d 27 7f 46 3c de 5c cb bd 22 70 0d 3d
       0.07071484 0.012115276 -0.099298224 0.034530766
000270 43 02 1a be 65 21 1e be 82 fc 3c be 53 bc 11 ba
       -0.15039925 -0.15442427 -0.18455699 -0.00055593735
000280 d0 2c 05 bd f8 81 f7 bd a4 2f 8d bc 6d ae b3 bd
       -0.03251344 -0.120853364 -0.01723463 -0.087735035
000290 0f 06 16 be 17 a7 86 3d ea 1d 0c be 12 aa 98 bd
       -0.14650749 0.065748386 -0.13683286 -0.07454313
0002a0 4f 55 9e 3b 8e 65 ca bc ba 3f ab 3c aa 9a e1 3c
       0.004831947 -0.024706628 0.02090441 0.02753957
0002b0 bc d3 a1 bc ed f1 3f be 7d 7c 00 be 9e 15 2c be
       -0.019754283 -0.18744631 -0.12547489 -0.16805121
0002c0 81 8b c9 bd 0b 0d 12 bd 52 4a 1c bc 88 be 3f be
       -0.098410614 -0.03565697 -0.009539204 -0.18725026
0002d0 a8 32 16 3c 74 ed 43 3d 85 07 e0 3d 6f f2 07 3e
       0.009167351 0.047833875 0.10938934 0.13276075
0002e0 a3 6e 4f 3c fc e2 4a 3d 46 38 aa bd 37 73 87 bd
       0.012660655 0.049532875 -0.083115146 -0.06613772
0002f0 8e 33 dd bd 9a ff 7d 3d b3 50 90 bd ba b3 52 3b
       -0.10800849 0.06201134 -0.07046642 0.0032150582
000300 48 d9 27 be ef b3 ce bb 31 4f c8 bd 11 64 59 bc
       -0.1639148 -0.006308071 -0.097807296 -0.013268487
000310 64 2b 74 3d 3b 52 1d 3e 76 dd 3b bd 1a c3 3d bc
       0.059611693 0.153634 -0.0458655 -0.01158216
000320 2d 05 ba bd 2f ba 89 bd 42 b7 fd 3d 9a 38 0b be
       -0.090830185 -0.06724965 0.12388469 -0.1359581
000330 42 d1 45 be 0a de a4 39 c4 33 64 bd e5 34 1f 3d
       -0.19318107 0.0003144595 -0.05571343 0.038868804
000340 2a 28 58 bc fd 2b d3 bd a7 10 f8 3c fe 53 7d 3c
       -0.01319317 -0.103111245 0.030281378 0.01546192
000350 7e 5c c2 bd e7 90 02 3e ff 3c 1b 3d 5b b0 a1 3d
       -0.09490298 0.12750588 0.037899967 0.07894965
000360 f2 c6 70 bd 84 88 66 3d d8 3c c6 3d c6 f7 dd 3d
       -0.05878348 0.056282535 0.09679574 0.10838275
000370 d9 50 c0 3d 3e e5 a1 bd 63 70 50 3d 13 d3 34 be
       0.093904205 -0.079050526 0.05088843 -0.17658643
000380 51 b3 d2 3d 13 29 d8 bd fd f9 7b bd 5d bc ea bd
       0.10288108 -0.10554709 -0.061517704 -0.11461709
000390 80 be f3 3d 79 d1 01 3d 34 12 3c be c0 f8 15 3e
       0.11901569 0.03169391 -0.18366319 0.14645672
0003a0 a1 dd 72 3d 6b 9e 4e 3c 3c 06 87 bd 1b 1a 0a 3d
       0.059293393 0.012611012 -0.06592986 0.033716302
0003b0 dc 09 dd bc 6e ff d3 bd db 25 f0 bc dd b1 0e be
       -0.02698224 -0.10351454 -0.029314926 -0.13935037
0003c0 52 59 cf 3d 06 db 0b 3e 94 75 1d be 32 2c db bd
       0.101244584 0.1365777 -0.15376884 -0.10701789
0003d0 cb b2 4b bd 49 8f ca bd 73 58 f8 bd 5d 5c 24 bb
       -0.049731057 -0.09890611 -0.12126245 -0.0025079467
0003e0 0f fa 96 bd ff ff 7e bd 45 c8 97 3c 14 ff 6b 3d
       -0.07371914 -0.062255856 0.018528113 0.05761631
0003f0 d9 94 33 3d 05 fd 3c bd a1 2f 89 3d 83 28 64 3c
       0.043843124 -0.046139736 0.066985376 0.013925674

bias f4 [47]
000000 5e bb d3 3d f0 2a 8f bd 7d 91 6a 3d b1 21 63 3c
       0.10338472 -0.069906116 0.057267655 0.013863013
000010 53 5e 76 bc 4b 53 c6 3c 4b 1d 3a 3d 8d be 84 be
       -0.015037137 0.024209639 0.045438092 -0.2592663
000020 d0 c5 ba 3d 98 a5 0a be b7 a1 47 be 2d b4 f3 ba
       0.09119761 -0.13539732 -0.19495283 -0.0018593125
000030 c2 68 d6 3d 65 61 d1 bd a4 74 38 bd f1 83 c1 bd
       0.104692 -0.10223655 -0.045033112 -0.09448994
000040 4c 41 81 bd 51 8b bf bb 0a a1 1f be ba c6 38 bd
       -0.063112825 -0.005845465 -0.15588775 -0.045111395
000050 90 84 af 3c e5 da 03 3d 89 3a 0f 3c da 56 71 3d
       0.021425515 0.032191176 0.008741983 0.05892072
000060 33 43 10 be 8f fc 14 be 7e bb 10 3d 36 db bd 3d
       -0.14088134 -0.14549468 0.035335056 0.09270327
000070 2d 5b c2 bd 06 67 62 bd d4 60 c3 bd b2 19 23 3d
       -0.09490047 -0.055274032 -0.09539953 0.039819427
000080 50 44 a2 ba 6d 34 2a be 87 98 94 3d d5 d9 1b be
       -0.0012379978 -0.16621561 0.07255655 -0.15219815
000090 22 ee 1e be 65 04 58 3d 7f e3 71 be 0b 06 39 be
       -0.15520528 0.052738566 -0.23621939 -0.18068711
0000a0 a8 57 e1 3c c9 aa 13 be 1e 9b 03 be 19 00 f7 3d
       0.027507618 -0.14420618 -0.12852141 0.120605655
0000b0 7c c7 db bd 3b 42 5e 3d 3d d9 3f 3e
       -0.10731408 0.05426238 0.18735214

weight f4 [47, 128]
000000 37 d8 b9 3d df c3 d1 3b 8a ae 29 3e 06 52 db bd
       0.09074443 0.0064015235 0.16570488 -0.10709004
000010 43 95 69 3c 3d 5e 23 3d e3 fe 08 be 11 c7 c6 bc
       0.014256778 0.039884795 -0.13378482 -0.024264844
000020 c0 76 0a 3e 7b 2c 80 3d cc 9b 19 3e 86 b1 31 3d
       0.13521862 0.06258484 0.15000838 0.04338219
000030 3a 88 51 bd f2 c0 32 3d 20 05 a5 bd 3d 9c 14 3d
       -0.051155306 0.04364104 -0.08057618 0.036281813
000040 97 31 8c 3d 94 40 80 bd 6c c3 01 3c 5a 05 a2 bc
       0.06845396 -0.06262317 0.007920127 -0.019777942
000050 c1 1f af 3c 01 25 00 3e 57 4c 8d 3d 5f ae 66 3c
       0.021377446 0.12514116 0.06899326 0.014079659
000060 db c1 15 3d 5b 5d 81 bd 2b f7 08 bd 86 d4 1c 3e
       0.036561828 -0.06316634 -0.033438843 0.15315446
000070 f4 74 14 3e c5 93 ec 3d 83 6f 7e 3d 79 b6 65 3d
       0.14497739 0.11551622 0.062118065 0.056082223
000080 e0 1b 0a 3e a8 74 b9 bd 59 8e 2f bd 56 57 13 3e
       0.13487196 -0.090554535 -0.042860363 0.14388785
000090 de 96 81 3d 20 fe 40 3d 95 02 be 3d b9 40 0c 3d
       0.06327604 0.047117352 0.09277836 0.03424141
0000a0 bf 48 c8 bc 6f be 9f bd 00 32 2b 3e c3 7a d9 3c
       -0.02444875 -0.07799994 0.16718292 0.026547795
0000b0 8d ba dd 3d de a6 96 3d 00 2c 68 bd 3c c2 a7 bd
       0.10826597 0.07356046 -0.056682587 -0.08191344
0000c0 57 99 be bd 50 d7 c5 3d ea 1f 16 3d cb 07 87 bc
       -0.09306591 0.09660208 0.03665153 -0.016483208
0000d0 aa ea a5 3d 85 a3 f0 3d b7 b4 d4 bb da 87 f2 bd
       0.08101399 0.11749939 -0.0064912695 -0.11842318
0000e0 8d 68 d3 3d bc b3 4c bd 5f aa 3f 3d 24 a8 cb 3d
       0.10322676 -0.049976096 0.046793338 0.0994418
0000f0 aa 18 eb bb 6f 8a a9 bd a7 22 2d 3e a7 05 15 3d
       -0.007174571 -0.08278357 0.1690775 0.036382344
000100 ba b4 db 3d 84 1b 06 3e ff 99 94 3b cd 69 c2 3c
       0.1072783 0.13096434 0.0045349593 0.02373209
000110 6b 10 8f 3d 5b b9 04 3e 06 b1 72 3c 47 55 b8 bd
       0.06985553 0.12961332 0.0148127135 -0.0900064
000120 a4 95 08 3e 42 e6 eb b9 b6 0f 28 3e 12 68 49 3b
       0.13338333 -0.00044994248 0.16412243 0.0030732197
000130 54 fb 0f 3e ab a4 0c 3d 8f 95 df 3c e7 0b cb 3d
       0.14060718 0.034336727 0.027292995 0.099143796
000140 d5 97 79 3d 35 76 8d 3d 3b 8f 43 bd 45 a0 96 bd
       0.060935814 0.06907312 -0.047744017 -0.07354788
000150 e7 c4 6d 3c 0d 78 81 bd a4 08 f0 3c ef f4 6f 3d
       0.014512277 -0.06321726 0.029300995 0.058583196
000160 ed fc de bd 87 d2 a8 bc ca d6 cb 3c d3 2e b2 bd
       -0.108880855 -0.0206082 0.024882693 -0.08700337
000170 44 53 70 bd 6f 91 5e 3d 4b bd a6 3c 14 d4 8f 3d
       -0.05867316 0.054337915 0.020353934 0.070228726
000180 0b b8 47 3d be 57 e9 3b 56 d0 2a 3e 4a e2 61 3d
       0.0487595 0.0071210554 0.16681036 0.055147447
000190 29 5f b9 bb d3 8c f2 3d 5f 02 9c bc 6f 87 25 bd
       -0.005657096 0.11843266 -0.0190441 -0.040412363
0001a0 64 ce be 3c 0b 18 19 3b c7 dc ca 3d 5c 38 3e bd
       0.023291774 0.0023360278 0.09905391 -0.046440467
0001b0 8b f5 ff 3d 77 e3 17 bd 87 3f 64 3d 61 1d 2b 3d
       0.124980055 -0.03708216 0.055724647 0.041776065
0001c0 f2 f0 01 bd 16 1d 67 bd 3b 54 0c 3c e3 9f 99 3e
       -0.031723924 -0.056424223 0.008565004 0.30004796
0001d0 cb bc 04 3d 34 10 9c 3c c7 4d ce 3d ea 70 ea bc
       0.03240661 0.019050695 0.100734286 -0.028618295
0001e0 41 0d ab 3d 94 78 05 3e 91 6d 52 3e 3e 9c 9c 3d
       0.08352137 0.13034278 0.20549609 0.07646988
0001f0 1c f1 e1 3c 9a c3 d0 3d d4 d2 8c 3d 21 8c 6b bd
       0.02758079 0.10193558 0.0687615 -0.057506684
000200 ef 90 fa 3c b8 2c 8a 3d 7a 0a 05 3e 7c ab 54 3e
       0.030586688 0.06746811 0.12992278 0.20768541
000210 ce 9f 83 bd 53 98 01 3e 83 29 70 ba c6 89 f2 3d
       -0.06426965 0.12655763 -0.0009161459 0.118426844
000220 4e d3 07 3d 94 e3 62 bd 4b cd 1c be 02 6d c6 3d
       0.0331605 -0.055392817 -0.15312688 0.0968876
000230 a4 a5 45 be f7 46 8a bd 30 f2 c7 3d 61 cd dc bd
       -0.19301468 -0.06751817 0.097629905 -0.107813604
000240 a9 2d d8 3d 37 f5 bf 3a e3 11 bf bb b6 82 23 3c
       0.10555584 0.0014645223 -0.0058309897 0.009979894
000250 0f 0e 34 3e e2 a1 3d 3d 3d 32 7f 3d 1a cb 6b 3c
       0.17583488 0.04629696 0.06230377 0.014391685
000260 03 bc 05 3d 96 fc d8 bc cf 83 8d 3c 0e a7 d0 3c
       0.032650005 -0.02648763 0.017274765 0.025470283
000270 fa ca 22 3e f0 af 9e bc af 25 ab bc 42 e8 e3 3d
       0.15897742 -0.019371003 -0.020891992 0.11128284
000280 b6 b0 3d be 7e ba b7 3d 96 00 46 3d cf 5e b7 3b
       -0.18524441 0.089711174 0.048340403 0.005596019
000290 58 52 e2 bc 1f 1d a4 3d db b2 9e bd 9f 32 46 3d
       -0.027627155 0.08013367 -0.07748958 0.04838812
0002a0 8c 9a da bd 64 df 03 be 60 be 37 be 4c 3c be 3d
       -0.10674009 -0.12878186 -0.17943716 0.092888445
0002b0 eb 68 39 3b 1a 64 41 3c fe 1a 12 bd a5 f6 62 bd
       0.0028291296 0.011803651 -0.035670273 -0.055411
0002c0 10 df bc bd 47 c6 4f bd 0d cc 64 3d 00 e3 b6 3d
       -0.09222233 -0.0507262 0.05585866 0.089300156
0002d0 9b 34 6e 3e 24 35 f8 3d ae 1e a0 3e fd d2 36 bd
       0.23262255 0.12119511 0.31273407 -0.044634808
0002e0 fb ff 18 3e 80 1f a3 3c 76 31 23 3e 9d be ac bd
       0.14941399 0.019912481 0.15936837 -0.08434794
0002f0 1b 3c 34 be 8e 28 9f 3d 58 4e ba 3d 3e e2 d0 3d
       -0.17601053 0.07771407 0.09096974 0.10199402
000300 b9 b8 19 3d ac 2b f3 3d 5f 60 bc 3c a0 ed c7 3d
       0.03752968 0.11873564 0.022995172 0.0976212
000310 78 04 62 3c c9 a4 1a be 50 7a 02 3e 1f e6 07 bc
       0.013795011 -0.15101923 0.12741971 -0.008294611
000320 e0 22 4f 3d e7 ac 07 bb 67 73 e6 bc 24 cd 98 3b
       0.05057037 -0.0020702423 -0.0281312 0.0046631265
000330 d3 7c 44 39 65 cb 05 be 8f bb d8 bb e6 78 9c bc
       0.00018738517 -0.1306587 -0.0066141556 -0.019100618
000340 cb 1f 3d 3a 2a 6a c3 3d 1d d1 73 3d e4 6a 8c 3d
       0.00072145154 0.095417336 0.059525598 0.06856325
000350 c4 a6 b0 bd 83 dc 42 be ad 42 a2 bc a1 35 b2 bd
       -0.08625558 -0.19029431 -0.019807184 -0.08701635
000360 7c 9a 63 3d d1 5a 67 ba c2 91 8c 3e f5 be 2a 3d
       0.05556725 -0.00088254834 0.27454954 0.041686017
000370 e7 07 7e ba fb 64 1b be 6c 92 e0 3c c7 12 00 3a
       -0.00096905086 -0.1517524 0.02741357 0.00048856105
000380 b3 77 de 3d 1d f7 3e bc d7 00 8b bd 7d b3 fe 3b
       0.108626746 -0.011655596 -0.067872696 0.0077728615
000390 96 a2 81 3d a3 29 22 3c f6 69 10 3b 28 51 b5 3d
       0.06329839 0.009897622 0.0022035814 0.0885337
0003a0 ca 64 30 3c c0 47 ba b9 58 c4 4e 3e 7a b1 3a bd
       0.0107662175 -0.00035530142 0.20192087 -0.04557941
0003b0 4e de c4 3d b6 79 15 3d 45 d1 ae 3c e4 9e 2b bd
       0.09612714 0.036493026 0.021340022 -0.041899577
0003c0 7a c0 29 3e 19 f5 be bc 61 da 62 3d e0 df 42 bb
       0.1657733 -0.023310231 0.055384044 -0.002973549
0003d0 94 c5 38 3d 18 6b e9 3d bb 1b 54 3e a8 c5 1e 3e
       0.0451103 0.1139738 0.20713703 0.15505087
0003e0 02 f1 1a 3e 6d 3b 50 3e eb 0e 19 be e3 f3 2b 3c
       0.15131 0.20335169 -0.14947097 0.010495159
0003f0 5a 99 e6 3d f2 b8 03 bb 41 64 7e 3c 60 b0 95 bc
       0.11259718 -0.002009925 0.015526832 -0.018272579
