Semi-supervised Learning/110612008.pth (torch, 536710 bytes, 6 tensors)

weight_ih_l0 f4 [512, 128]
0	0xbdaf1aac	-0.08550009
1	0xbd0834de	-0.033253543
2	0xbc9dddfc	-0.01927089
3	0xbd570d20	-0.05250275
4	0xb9dcadce	-0.00042091165
5	0xbda0fdcd	-0.07860909
6	0xbcb0e3ef	-0.021593062
7	0x3ca636b0	0.020289749
8	0x3d9b9b42	0.075979725
9	0x3d12718c	0.035752818
10	0x3e07c472	0.13258532
11	0x3dc04b7e	0.09389399
12	0x3dcf9163	0.10135152
13	0x3dd5f70b	0.1044751
14	0x3e5cf27f	0.2157688
15	0x3e833b71	0.25631288
16	0x3e3624c7	0.17787467
17	0x3df486ea	0.11939795
18	0x3dc6247e	0.09674929
19	0x3dbb11db	0.09134265
20	0x3dd4d622	0.10392405
21	0x3e27658c	0.16347331
22	0x3e154063	0.14575343
23	0x3d3abe9c	0.045591936
24	0x3de56b54	0.11202112
25	0x3d8a9f97	0.067687206
26	0xbc32c024	-0.010910068
27	0x3d63fccb	0.055661004
28	0xb96ed549	-0.00022776904
29	0xbc757814	-0.014982242
30	0xbdc52beb	-0.09627517
31	0xbe12d19e	-0.14337775
32	0xbccb28fa	-0.024799813
33	0xbe34691c	-0.17618221
34	0xbe20b88d	-0.156954
35	0xbe5197f1	-0.20468117
36	0xbe10d578	-0.14143932
37	0xbde8f8e3	-0.113755964
38	0xbe2eaeb5	-0.17058833
39	0xbe1c323c	-0.15253538
40	0xbe0b6b32	-0.1361511
41	0xbd5c8d56	-0.053845726
42	0xbdf2ad94	-0.11849514
43	0xbe13589f	-0.14389275
44	0xbe1009a9	-0.14066185
45	0xbc869dba	-0.016432632
46	0xbd1d24d7	-0.03836521
47	0xbe4e41ee	-0.20142338
48	0xbe5c4de9	-0.21514095
49	0xbe47cd05	-0.19511802
50	0xbe657cf5	-0.22410949
51	0xbde6a8f1	-0.11262692
52	0xbe0002a3	-0.12501006
53	0xbd871ff8	-0.065978944
54	0xbe58e3bc	-0.21180624
55	0xbe2d374b	-0.16915624
56	0xbdd72cb1	-0.10506571
57	0xbe97d022	-0.2965098
58	0xbe8b27f8	-0.2717893
59	0xbe808f7e	-0.25109476
60	0xbeab7a2c	-0.33491647
61	0xbe60c67d	-0.21950717
62	0xbe9211c2	-0.28529173
63	0xbe270b38	-0.16312873
64	0xbe1191db	-0.14215796
65	0xbe1daba5	-0.15397508
66	0xbdce47f0	-0.10072315
67	0xbe2abf5b	-0.16674559
68	0xbe57693a	-0.21036234
69	0xbe6a70e5	-0.22894628
70	0xbe360c88	-0.17778218
71	0xbe44e1e4	-0.19226795
72	0xbe44e8ca	-0.19229427
73	0xbe7df6ba	-0.2480115
74	0xbe4f787b	-0.20260803
75	0xbe841001	-0.2579346
76	0xbe157bba	-0.14597979
77	0xbe19d7a4	-0.15023667
78	0xbe6fd198	-0.23419797
79	0xbe8073d8	-0.25088382
80	0xbe802b37	-0.2503297
81	0xbe132521	-0.14369632
82	0xbe404388	-0.18775761
83	0xbe30c3af	-0.17262147
84	0xbdfe0852	-0.12403931
85	0xbd3262dc	-0.04355131
86	0xbd991668	-0.07474977
87	0xbd7a5e3f	-0.061125036
88	0x3c00643e	0.0078364
89	0x37c2143c	2.3136025e-05
90	0xbd660eaf	-0.056166347
91	0xbe0685a9	-0.13136925
92	0xbaca83aa	-0.0015450616
93	0xbd0286c5	-0.031866807
94	0xbe3c59c1	-0.18393613
95	0xbdc76ed6	-0.09737937
96	0xbe6779a6	-0.22604999
97	0xbeb3599f	-0.35029313
98	0xbe9d1399	-0.30679014
99	0xbe90b550	-0.2826333
100	0xbebefcf9	-0.37302378
101	0xbe8f3642	-0.27971083
102	0xbe9ceb97	-0.3064849
103	0xbeaf6961	-0.34260085
104	0xbe927a5d	-0.2860898
105	0xbe8b1129	-0.2716153
106	0xbe288036	-0.16455159
107	0xbe7f81d0	-0.24951863
108	0xbde9b264	-0.114109784
109	0xbca1001a	-0.019653369
110	0xbdebef40	-0.11520243
111	0xbd8d74c4	-0.06907037
112	0xbd7e4f53	-0.06208737
113	0xbbf728b1	-0.0075426926
114	0xbd8051f2	-0.0626563
115	0xbd87d6b8	-0.06632751
116	0xbcb383d6	-0.02191345
117	0xbdec1c95	-0.11528889
118	0xbde9c750	-0.11414969
119	0xbcc2f50c	-0.023798488
120	0xbd80abc1	-0.062827595
121	0xbdaa3dc9	-0.08312566
122	0xbcf1e130	-0.029526323
123	0xbd24b90e	-0.040215544
124	0xbd381d3d	-0.04494976
125	0x3ce069db	0.027394226
126	0x3dd6a886	0.10481362
127	0x3dc6b1bb	0.09701868
128	0xbe0bd08f	-0.13653778
129	0xbe66bfc8	-0.22534096
130	0xbe4119ac	-0.1885745
131	0xbe4080ac	-0.18799084
132	0xbce7bd3f	-0.028288482
133	0x3da9e193	0.08294978
134	0x3d21c1ee	0.039491586
135	0x3dcfcae2	0.10146119
136	0x3c3e5df9	0.0116190845
137	0x3d565a36	0.052332126
138	0x3e0e917b	0.13922684
139	0x3ce07152	0.027397785
140	0x3cd83461	0.026392164
141	0xbcba760e	-0.022761371
142	0x3c776c12	0.01510145
143	0xbd91afb2	-0.07113589
144	0xbd5e2e6e	-0.054243498
145	0xbe0efbb9	-0.13963212
146	0xbdec8846	-0.115494296
147	0xbd628d5a	-0.055310585
148	0xbe4f67d3	-0.2025445
149	0xbd5fea13	-0.05466659
150	0xbe46c419	-0.19410743
151	0xbe5e4b91	-0.21708514
152	0xbde2d84d	-0.11076412
153	0xbdd1aa64	-0.102375776
154	0xbe024054	-0.12719852
155	0xbe4405f7	-0.191429
156	0xbd441dc6	-0.047879957
157	0xbd291d1f	-0.041287538
158	0xbd951261	-0.07278896
159	0xbe0b6b35	-0.13615115
160	0xbe494f9d	-0.19659276
161	0xbe2b3d2e	-0.16722557
162	0xbe45ae28	-0.19304717
163	0xbe38b372	-0.18037203
164	0xbdedc195	-0.116091885
165	0xbda76ab9	-0.081746526
166	0xbdebebf7	-0.11519616
167	0xbd93067b	-0.071789704
168	0xbc8d04a8	-0.017214134
169	0x3b6144c6	0.0034373268
170	0x3bc4bd54	0.006004015
171	0xbcbd8241	-0.023133399
172	0x3cdb2a22	0.026753489
173	0xbcc334bf	-0.023828862
174	0xbdb0c239	-0.08630795
175	0xbdbecf4f	-0.09316885
176	0xbe0f167b	-0.1397342
177	0xbe0fcaf0	-0.14042258
178	0xbe2468c5	-0.16055591
179	0xbd340b96	-0.04395636
180	0xbe4fc294	-0.2028907
181	0xbdca94c5	-0.09891657
182	0xbd924b75	-0.071432985
183	0xbe037e99	-0.12841262
184	0xbe44be0b	-0.1921312
185	0xbcc7cca9	-0.024389582
186	0xbdd637c5	-0.10459856
187	0xbe1b2a31	-0.15152813
188	0xbe00e03c	-0.12585539
189	0xbe415c5b	-0.18882887
190	0xbdda773b	-0.10667273
191	0xbe24ab96	-0.1608108
192	0xbe42dd06	-0.19029626
193	0xbe5e6718	-0.21719015
194	0xbe9599cb	-0.29218897
195	0xbe54b45a	-0.20771924
196	0xbdfed239	-0.124424405
197	0xbe5930a8	-0.21209967
198	0xbe16eea7	-0.14739476
199	0xbdf5260f	-0.1197015
200	0xbe0d2389	-0.13783087
201	0xbc62b230	-0.0138364285
202	0x3d4b47d1	0.049629036
203	0xbc293f03	-0.010329965
204	0x3cd8b833	0.02645502
205	0x3c87ea5c	0.016591243
206	0xbda323ee	-0.079658374
207	0x3bd7c246	0.0065844385
208	0xbd6d2fcb	-0.057906907
209	0xbd2a4389	-0.041568313
210	0xbd566a58	-0.05234751
211	0xbb5de7df	-0.003386013
212	0xbdba555a	-0.09098311
213	0xbd5b986a	-0.05361215
214	0xbc732d05	-0.014842276
215	0xbd9a4219	-0.075321384
216	0xbd7ffb0f	-0.062495288
217	0xbddb7b3c	-0.107168645
218	0xbe199f54	-0.15002185
219	0xbe00cae0	-0.1257739
220	0xbe2b44a6	-0.16725406
221	0xbc5cdd19	-0.013480448
222	0x3c0abc50	0.008467749
223	0xbc41e01c	-0.011833217
224	0xbd78725e	-0.060655944
225	0xbb64e055	-0.0034923751
226	0xbcd9a729	-0.026568966
227	0xbdae5332	-0.08511962
228	0xbe0a5338	-0.13508308
229	0xbdb88e4b	-0.09011515
230	0xbe005c7f	-0.12535284
231	0xbe3658cd	-0.17807312
232	0xbe0eac65	-0.13932951
233	0xbd4ba706	-0.049719833
234	0xbdca159b	-0.09867402
235	0xbd0debe9	-0.03464881
236	0x3d65261c	0.055944547
237	0x3e19609f	0.14978264
238	0x3da0d9b8	0.078540266
239	0x3e467396	0.1938003
240	0x3e7ca6f0	0.24673057
241	0x3dc1c389	0.094611235
242	0x3e0e56b6	0.13900265
243	0x3e4af833	0.19821243
244	0x3e00b49d	0.12568898
245	0x3dddc84c	0.10829219
246	0x3bd4e576	0.0064970804
247	0xbd805b49	-0.06267411
248	0xbd94d3b4	-0.07266942
249	0x3d1e2585	0.03861
250	0xbd322b74	-0.04349847
251	0xbd298c96	-0.04139384
252	0x3d25c12c	0.040467426
253	0xbc881079	-0.016609417
254	0x3d0701f8	0.032960862
255	0x3d775e31	0.060392562

weight_hh_l0 f4 [512, 128]
0	0xbd05b712	-0.032645293
1	0x3c344bcf	0.011004402
2	0xbdc3f3c3	-0.09567978
3	0xbe02bbaa	-0.127669
4	0x3e2bc35a	0.1677374
5	0xbef914bf	-0.4864864
6	0x3e8055c8	0.25065446
7	0x3d79d4a6	0.060993813
8	0xbe10d62e	-0.14144203
9	0x3eb8abf7	0.360687
10	0x3e382fbc	0.17986959
11	0xbf23c1f7	-0.6396784
12	0x3da9a36f	0.082831256
13	0xbe92bf93	-0.28661785
14	0xbe1e8372	-0.1547983
15	0x3e65efa2	0.22454694
16	0x3ef0c8a1	0.47028068
17	0xb97ce387	-0.00024117353
18	0xbe849e82	-0.25902182
19	0xbec0666f	-0.3757815
20	0xbc1b8338	-0.009491734
21	0xbd3c469a	-0.04596577
22	0x3ead8b2e	0.33895248
23	0x3e0259c7	0.1272956
24	0x3d8912ea	0.06693061
25	0x3daf95dd	0.08573506
26	0xbe890166	-0.2675888
27	0x3e087a81	0.13327982
28	0xbdefefa5	-0.117156304
29	0xbe089d31	-0.13341214
30	0xbe9735a1	-0.29533103
31	0x3e9e89f5	0.30964628
32	0x3defa581	0.11701489
33	0x3e0cb919	0.13742484
34	0xbdc4a34a	-0.096014574
35	0x3e4512c0	0.19245434
36	0x3e852a17	0.26008675
37	0xbe5a3739	-0.21310128
38	0xbe73d968	-0.23813403
39	0xbd7dfc90	-0.06200844
40	0xbea2f442	-0.3182698
41	0xbedbceb0	-0.42931128
42	0x3ebec61d	0.37260523
43	0x3e231089	0.15924276
44	0x3da321db	0.07965442
45	0x3ec9c46a	0.39407665
46	0x3e9d1968	0.30683446
47	0x3e66d54a	0.22542301
48	0xbd7994c0	-0.060932875
49	0xbe9ae11a	-0.30249864
50	0x3dee2cbd	0.11629627
51	0xbd1c5c26	-0.038173817
52	0xbe2cff61	-0.16894294
53	0x3efe8918	0.4971397
54	0xbd72e23b	-0.05929778
55	0x3e7b5819	0.24545325
56	0x3e75a4e2	0.23988679
57	0xbf0e4e1c	-0.55587935
58	0xbee5c301	-0.4487534
59	0xbb8dc064	-0.0043259133
60	0xbe460e73	-0.1934145
61	0x3eb41a78	0.35176444
62	0xbec0c785	-0.3765222
63	0xbc0f168c	-0.008733403
64	0xbe64a37f	-0.22327994
65	0xbe366962	-0.17813638
66	0xbe4f6685	-0.20253952
67	0xbe569c87	-0.20958148
68	0x3e54246e	0.20717022
69	0x3e6ce6ac	0.2313487
70	0x3df13032	0.11776771
71	0x3e08d22a	0.13361421
72	0x3e493512	0.19649151
73	0x3e841206	0.25795
74	0xbde77782	-0.11302091
75	0xbdb31ec2	-0.08746101
76	0x3e31739a	0.17329255
77	0xbebe66b9	-0.37187746
78	0x3d0965df	0.033544417
79	0xbded04da	-0.11573191
80	0xbec03622	-0.375413
81	0xbe593970	-0.21213317
82	0x3e7b0c1e	0.24516341
83	0x3e5e6afb	0.21720497
84	0x3e6fd899	0.23422469
85	0xbc054dfa	-0.008136267
86	0xbeac45be	-0.3364696
87	0x3e8faa52	0.28059632
88	0xbc8bca98	-0.017064378
89	0xbf1830c4	-0.5944941
90	0x3e81f8af	0.25385043
91	0x3dc35eab	0.09539541
92	0xbcad6dbf	-0.021170495
93	0x3e1b50ee	0.15167591
94	0xbf1fe65b	-0.6246087
95	0x3e53bfee	0.20678684
96	0x3cd16fad	0.025565946
97	0x3e73ee0a	0.23821273
98	0x3f1b73f4	0.60723805
99	0x3f031fe9	0.51220566
100	0xbf0499e2	-0.51797307
101	0xbe454077	-0.19262873
102	0x3cf664cb	0.030077359
103	0xbe76a829	-0.24087586
104	0x3d6b087c	0.05738114
105	0xbd951c19	-0.0728075
106	0x3ba23a90	0.004950829
107	0xbde67ac6	-0.11253886
108	0x3dcf9c4b	0.101372324
109	0x3ea89432	0.32925564
110	0x3e51caf4	0.20487577
111	0xbd3fc7b0	-0.046821296
112	0xbe887bf2	-0.26657063
113	0xbdbea4e3	-0.093087934
114	0x3eba5806	0.36395282
115	0x3e3c7d2a	0.18407121
116	0xbe3a0364	-0.18165356
117	0x3bd5c873	0.0065241395
118	0xbe148e63	-0.14507441
119	0x3ed8584d	0.42254868
120	0x3ee3e2d5	0.44508997
121	0x3db78196	0.089602634
122	0xbdb786f4	-0.08961287
123	0x3e7dd1b1	0.24787022
124	0x3d55b763	0.052176844
125	0x3dd130de	0.10214399
126	0xbd6bb0ae	-0.05754154
127	0x3b22883e	0.0024800445
128	0x3e2ac7dd	0.16677804
129	0x3e8c6b28	0.27425504
130	0x3e09066d	0.13381357
131	0xbe0511f7	-0.12995134
132	0xbd80edd7	-0.06295364
133	0xbf11bc0f	-0.5692758
134	0xbe843c6d	-0.2582735
135	0xbec87ed7	-0.3915927
136	0x3eb0c38f	0.345242
137	0xbe337300	-0.17524338
138	0x3daba1c6	0.08380465
139	0x3f3e48e1	0.74329954
140	0x3d9b005b	0.07568427
141	0x3ec45fc1	0.38354304
142	0x3e97fd63	0.29685506
143	0xbdafcf17	-0.08584421
144	0xbcb1718a	-0.021660585
145	0x3d4426a3	0.04788841
146	0x3e3cd757	0.1844152
147	0xbd14b4a8	-0.0363051
148	0xbeac547e	-0.33658212
149	0xbe23f295	-0.16010506
150	0xbe4d1e5a	-0.2003111
151	0xbee63fa9	-0.44970444
152	0xbe8cd5c7	-0.2750685
153	0x3e359315	0.17731889
154	0x3e585dc0	0.21129513
155	0x3d93a06e	0.07208334
156	0xbd94b588	-0.07261187
157	0x3ec36b60	0.38167858
158	0xbeffc2c4	-0.49953282
159	0x3d2edba4	0.042689934
160	0xbee1ed76	-0.4412648
161	0xbe28fa40	-0.16501713
162	0x3ea08b31	0.31356195
163	0xbebeecae	-0.37289947
164	0x3e2210e9	0.15826763
165	0x3eb36fe8	0.35046315
166	0x3d96c407	0.07361608
167	0xbe13948f	-0.1441214
168	0xbeb49260	-0.35267925
169	0xbeb4454e	-0.35209125
170	0xbf0657ea	-0.52477896
171	0xbec68d76	-0.387798
172	0x3eede1a2	0.46461207
173	0xbe90c1cd	-0.28272858
174	0x3e62dff0	0.22155738
175	0xbeca8838	-0.39557052
176	0x3bdf944b	0.006823098
177	0xbe348906	-0.17630395
178	0xbe6ab38d	-0.22920056
179	0x3e867c08	0.26266503
180	0x3ea81fc2	0.3283673
181	0xbeacfc4d	-0.3378624
182	0x3f0c1677	0.5472178
183	0xbec7281f	-0.38897797
184	0x3d6815d5	0.056661446
185	0x3f0e06ad	0.55478936
186	0x3ebfddc8	0.37473893
187	0x3d1ea449	0.038730893
188	0x3f5a83ea	0.85357535
189	0xbd5c6b50	-0.05381328
190	0xbdcd71c3	-0.10031464
191	0xbe3c4e80	-0.1838932
192	0xbe9cefb6	-0.30651635
193	0xbea58414	-0.3232733
194	0xbdc1df29	-0.094663925
195	0x3f4ce07a	0.80030024
196	0x3daa84ed	0.08326135
197	0xbed895be	-0.42301744
198	0x3ea7cfe8	0.32775807
199	0xbdb35f65	-0.087584294
200	0x3d7ef70b	0.062247317
201	0x3dc247ea	0.09486373
202	0x3db03943	0.08604672
203	0x3e407b85	0.18797119
204	0xbe96fb3b	-0.2948855
205	0xbe45f721	-0.19332553
206	0x3edcb4f3	0.43106803
207	0xbd94549a	-0.07242699
208	0x3da5a984	0.08088973
209	0xbe529da1	-0.20567943
210	0x3ad39ec9	0.0016145344
211	0x3e2316de	0.15926692
212	0xbcffdcf9	-0.031233298
213	0x3d521fc2	0.051299818
214	0xbe0ffe0d	-0.14061756
215	0x3e541ed1	0.2071488
216	0x3ea6cd7b	0.32578644
217	0xbe00b3bd	-0.12568565
218	0x3e98c004	0.29833996
219	0xbee9f433	-0.45694122
220	0x3d8787a0	0.06617665
221	0xbf6ffe7a	-0.93747675
222	0xbea5ee4d	-0.32408372
223	0x3e376ecd	0.17913361
224	0x3d1fda6c	0.039026663
225	0x3e368969	0.17825855
226	0x3ecc601c	0.39917076
227	0xbeb9fb87	-0.36324713
228	0x3e4d986a	0.20077673
229	0x3e3679b9	0.17819871
230	0xbeb7e015	-0.3591315
231	0x3f31f495	0.6951383
232	0x3c85f07b	0.016350022
233	0xbde35797	-0.11100691
234	0x3eeb3a9d	0.45943156
235	0xbf253f47	-0.6454968
236	0xbe530bb7	-0.20609938
237	0xbe8d2503	-0.275673
238	0xbddcfc25	-0.1079028
239	0xbf01efd7	-0.5075659
240	0x3e01ed64	0.12688214
241	0xbdd1e909	-0.10249526
242	0xbe6091f4	-0.21930677
243	0xbe78e83e	-0.24307343
244	0xbcd7f53e	-0.026362058
245	0x3e968464	0.2939788
246	0xbd238943	-0.039925825
247	0xbf85cf8e	-1.0453966
248	0xbd6fd7a3	-0.058555257
249	0x3e8ee708	0.27910638
250	0x3ed947cd	0.42437592
251	0xbe1eba50	-0.1550076
252	0x3e8c2f3e	0.27379793
253	0x3e7d8427	0.24757443
254	0x3d8d7fec	0.06909165
255	0xbd50af4f	-0.050948437

bias_ih_l0 f4 [512]
0	0x3e684f66	0.22686538
1	0x3e88cf21	0.26720527
2	0x3dfdd36e	0.12393843
3	0xbc73affa	-0.014873499
4	0xbd900e10	-0.07033932
5	0xbd7c27a3	-0.061561238
6	0x3ed48a68	0.41511846
7	0x3d0fa59e	0.035070054
8	0x3caaa36f	0.020829884
9	0x3d685d09	0.05672935
10	0xbdbeb1d7	-0.09311264
11	0x3ca3e44c	0.020006321
12	0xbe52728d	-0.2055151
13	0x3e9f39e5	0.31098858
14	0xbd0041bb	-0.031312685
15	0xbd434aaa	-0.047678627
16	0x3dee985d	0.11650155
17	0xbc462f10	-0.0120961815
18	0x3e200c23	0.1562963
19	0x3db35871	0.08757103
20	0x3dfc6678	0.12324232
21	0x3e362167	0.1778618
22	0x3e860218	0.26173472
23	0x3e6f49ca	0.23367992
24	0xbe130623	-0.1435781
25	0xbde5a586	-0.11213212
26	0x3ef2048b	0.4726909
27	0x3c20d2c7	0.009815878
28	0xbcd75828	-0.026287153
29	0x3d9ed5c3	0.077556156
30	0x3eaf396b	0.34223494
31	0xbb2959d9	-0.0025840907
32	0x3e23feef	0.16015218
33	0xbe018be4	-0.1265102
34	0xbe5b179a	-0.21395722
35	0x3e3137e4	0.17306477
36	0x3e87da78	0.26533866
37	0xbd62be49	-0.05535725
38	0x3ead2874	0.33819926
39	0xbb881ea7	-0.0041540447
40	0xbdbccfb8	-0.09219307
41	0x3eb4d77f	0.3532066
42	0x3defbed4	0.117063195
43	0xbdccff55	-0.10009638
44	0x3e27885d	0.16360612
45	0x3e2df0fd	0.16986461
46	0x3de5c34d	0.11218891
47	0x3ddc87da	0.10768099
48	0x3ceb646d	0.02873441
49	0x3e013847	0.12619124
50	0x3e1b788d	0.15182705
51	0x3e085fef	0.13317846
52	0x3d3d0edf	0.04615676
53	0xbd4cfbf9	-0.050044987
54	0xbe5d4458	-0.21608102
55	0x3dba38b4	0.090928465
56	0x3de3bfef	0.11120593
57	0xbe899c06	-0.2687685
58	0x3e7cb4a8	0.2467829
59	0xbd78f568	-0.060780913
60	0xbeb2cd75	-0.34922376
61	0xbc4b7e46	-0.012420243
62	0x3e5f923b	0.21833126
63	0x3e09e440	0.13465977
64	0xbc70dbe8	-0.014700867
65	0x3eb8a227	0.36061212
66	0x3db60864	0.08888319
67	0x3ebc149c	0.36734474
68	0x3dff9af9	0.124807306
69	0x3e2d8944	0.16946894
70	0x3b3a7768	0.002845252
71	0xbc63bb87	-0.0138996905
72	0x3e548c11	0.20756556
73	0x3e4ca1c2	0.1998358
74	0xbdbe8645	-0.09302954
75	0x3ecef7ca	0.40423423
76	0x3e7a4fb0	0.24444461
77	0x3eb52bb7	0.35384914
78	0x3d6c2f15	0.05766209
79	0x3dd8534a	0.10562761
80	0xbb048da1	-0.002022602
81	0x3d5e4199	0.054261778
82	0x3de89675	0.113568224
83	0x3e0621e4	0.13098866
84	0x3ea0db4d	0.31417313
85	0xbe124c10	-0.14286828
86	0x3dd4c23e	0.10388611
87	0x3d8dc1b8	0.069217145
88	0x3da5a774	0.0808858
89	0x3da1160b	0.078655325
90	0x3e3c8e01	0.18413545
91	0x3e4d1048	0.20025742
92	0xbc869b0f	-0.01643136
93	0x3d28fb1c	0.0412551
94	0x3e7aa893	0.24478368
95	0xbb2c93da	-0.0026333244
96	0x3e668f4d	0.22515602
97	0x3e72618f	0.23670028
98	0x3d92b9f7	0.07164376
99	0x3eb14b0a	0.34627563
100	0x3e00ec92	0.12590244
101	0xbd6a171d	-0.05715095
102	0xbe04547b	-0.12922852
103	0x3da93a5f	0.082630865
104	0x3e3d84c5	0.18507679
105	0x3d364816	0.04450234
106	0x3d5281f7	0.051393475
107	0x3db2f5a3	0.08738258
108	0x3e3ef20a	0.18647018
109	0x3e2b7f03	0.1674767
110	0x3dae42a8	0.085088074
111	0xbd7788a9	-0.060433064
112	0x3e8a3d40	0.26999855
113	0xbe17d249	-0.14826311
114	0x3e92163f	0.28532597
115	0xbe56d41a	-0.20979348
116	0xbea5ac26	-0.323579
117	0xbd75ebdc	-0.060039386
118	0x3e81f94e	0.25385517
119	0xbe828a49	-0.25496128
120	0xbe0c7065	-0.1371475
121	0x3d1910bc	0.037369475
122	0x3cfce102	0.03086901
123	0x3e16c5a9	0.14723839
124	0x3e188be0	0.14897108
125	0x3ef6f23f	0.48231694
126	0x3d384790	0.044990122
127	0x3e5b0fac	0.21392697
128	0xbe471352	-0.19440964
129	0x3cb0a15b	0.021561315
130	0x3bb5ed8c	0.0055519994
131	0x3dd43f69	0.10363657
132	0xbe27cb68	-0.16386187
133	0x3cf9cfca	0.03049459
134	0x3ed12483	0.4084817
135	0x3c4ddbc5	0.012564604
136	0x3e424bb0	0.18974185
137	0xbde4b49f	-0.11167263
138	0xbd4e1417	-0.050312128
139	0xbdbc4470	-0.09192741
140	0x3de1f487	0.11032968
141	0x3e1e61d8	0.15467012
142	0x3d2d2e0a	0.042280234
143	0xbe12f6c9	-0.14351954
144	0x3a2c2bc6	0.0006567802
145	0xbe02c519	-0.127705
146	0x3df7b5be	0.120952114
147	0xbd17106d	-0.0368809
148	0xbe485627	-0.19564115
149	0xbe1d24d5	-0.15346082
150	0x3cb149bc	0.021641605
151	0x3c0584f9	0.008149379
152	0xbe5b76d2	-0.21432045
153	0x3e4eabdc	0.20182747
154	0xbdc241a6	-0.09485178
155	0xbc68746d	-0.014187914
156	0x3d12a5a5	0.035802502
157	0xba5bb6b6	-0.0008381413
158	0xbe2c1b73	-0.16807346
159	0x3e5fcfa8	0.21856558
160	0xbbc80c56	-0.006104986
161	0xbdba5b47	-0.09099441
162	0xbe0ecd33	-0.13945465
163	0x3e17a9aa	0.14810815
164	0x3ea6efcc	0.32604825
165	0xbda958e4	-0.08268908
166	0x3e0302a6	0.12793979
167	0xbb1bffa6	-0.0023803501
168	0x3e3d4769	0.18484272
169	0x3aec2e1a	0.001801911
170	0xbd9e02fe	-0.077154145
171	0x3d8927f3	0.06697073
172	0x3dafaa76	0.08577435
173	0x3e351523	0.17683844
174	0x3dbd3bf8	0.09239954
175	0xbde05ada	-0.109548286
176	0xbd8f8e42	-0.070095554
177	0x3de30eda	0.11086817
178	0xbdc39f03	-0.095518135
179	0xbde40181	-0.11133099
180	0xbd733934	-0.059380725
181	0x3cb3a6cd	0.021930123
182	0x3dcf6693	0.10126986
183	0xbb2a61ab	-0.0025998156
184	0xbd988f79	-0.0744924
185	0x3e074905	0.13211448
186	0x3eacefd4	0.33776724
187	0xbe0221ea	-0.1270825
188	0x3e02346e	0.12715313
189	0xbd8d0682	-0.06886007
190	0xbba68bcd	-0.0050825835
191	0x3d438160	0.047730803
192	0x3e403cc1	0.18773176
193	0x3e0d3f7a	0.13793746
194	0x3c1cd566	0.0095723625
195	0x3d9d96e9	0.076947995
196	0x3ea80509	0.32816342
197	0xbe1dc34e	-0.15406534
198	0x3dd040d3	0.10168614
199	0xbc1c2a4a	-0.009531567
200	0x3e3a0a6f	0.18168043
201	0x3bc34671	0.005959325
202	0xbe1f01f9	-0.15528096
203	0x3dbb7dac	0.091548294
204	0x3e0b08cd	0.13577576
205	0x3d83d77f	0.06437587
206	0x3d60bbcb	0.054866593
207	0xbdafc490	-0.08582413
208	0xbde6176b	-0.112349354
209	0xbe279018	-0.16363561
210	0xbd6642e5	-0.05621614
211	0x3e85558d	0.26041833
212	0x3ea19b4e	0.315638
213	0xbd9c53b0	-0.076331496
214	0x3cd31e2c	0.025771223
215	0x3e342de3	0.1759563
216	0xbe0b6428	-0.13612425
217	0xbd811483	-0.063027404
218	0x3db37abf	0.08763646
219	0xbd48340f	-0.048877772
220	0xbdf7b83c	-0.12095687
221	0x3dfeb85e	0.12437509
222	0x3e97bcc8	0.29636216
223	0xbc8ddd5e	-0.01731747
224	0x3ea605f8	0.3242643
225	0x3ddcb3ec	0.10776505
226	0xbe05eb10	-0.1307795
227	0x3d4c5be3	0.049892318
228	0x3a9cff41	0.0011977927
229	0x3d94aac0	0.072591305
230	0x3e951195	0.29114977
231	0xbd2dc6ac	-0.042425796
232	0x3d99b706	0.07505612
233	0xbd560308	-0.052248985
234	0xbdd1290a	-0.10212906
235	0xbcfe3d88	-0.0310352
236	0x3cf9f151	0.030510576
237	0x3ccfa542	0.025347356
238	0x3e0c84b2	0.13722494
239	0x3e9d9548	0.30777955
240	0x3ea5ce5f	0.3238401
241	0xbd844744	-0.06458905
242	0x3e4486f0	0.191921
243	0x3e8a0412	0.2695623
244	0x3dc8e2b6	0.09808867
245	0x3d988b50	0.07448447
246	0x3d71615a	0.058930732
247	0x3e5c0869	0.21487583
248	0xbe1c9ff4	-0.15295392
249	0xbe08230b	-0.13294618
250	0x3e826627	0.2546856
251	0x3e37bc92	0.17943028
252	0x3d98a711	0.074537404
253	0x3e850e1f	0.25987336
254	0xbcf20a68	-0.029545978
255	0x3e8edf6a	0.27904826

bias_hh_l0 f4 [512]
0	0x3eb7c015	0.35888734
1	0x3eaad194	0.3336302
2	0x3dc649d6	0.09682052
3	0xbcf5f168	-0.030022338
4	0xbe1ca772	-0.1529825
5	0x3c663de5	0.014052843
6	0x3ea7e2e5	0.32790294
7	0x3e2b2bc0	0.16715908
8	0x3da4bd6f	0.08043944
9	0xba35268f	-0.0006910348
10	0xbd89bed3	-0.0672585
11	0xbc6a8365	-0.014313553
12	0xbe102de6	-0.14080009
13	0x3eb053ac	0.34438837
14	0xbd2e5823	-0.042564522
15	0xbde47e17	-0.11156862
16	0x3e20e60e	0.15712759
17	0x3d3baf23	0.04582132
18	0x3dc4724e	0.095921144
19	0x3e62ae1e	0.22136733
20	0x3da2c7d3	0.0794827
21	0x3e58c743	0.21169762
22	0x3e68efc0	0.22747707
23	0x3eab6dd2	0.33482224
24	0xbe210682	-0.15725139
25	0xbe22f524	-0.15913826
26	0x3efa6d04	0.48911297
27	0xbd957edf	-0.07299589
28	0xbd78f13d	-0.060776938
29	0x3e3f092e	0.18655846
30	0x3e930075	0.28711286
31	0xbe0ec049	-0.13940538
32	0x3e37ee74	0.17962056
33	0xbde132c2	-0.109960094
34	0xbd6a962b	-0.057272118
35	0x3e5e0ea1	0.21685268
36	0x3ea28aa6	0.31746405
37	0xbb7da17e	-0.0038700993
38	0x3e916940	0.28400612
39	0x3d1c5fa6	0.038177155
40	0xbd0f8c84	-0.035046116
41	0x3e868cc6	0.26279277
42	0x3d3c5e3e	0.045988314
43	0xbd3b250f	-0.04568964
44	0x3dea4425	0.11438779
45	0x3e080746	0.13284025
46	0x3d23b05d	0.039963115
47	0x3d236f99	0.03990135
48	0x3cd262b0	0.025681823
49	0x3e3ea903	0.1861916
50	0x3e4e104c	0.20123404
51	0x3d891287	0.06692987
52	0x3d7ca2e9	0.0616788
53	0xbda7a6ed	-0.081861354
54	0xbe6d67ff	-0.23184203
55	0x3e4a244e	0.19740412
56	0xbb7f1445	-0.0038921994
57	0xbe93dfad	-0.2888159
58	0x3e80d5ed	0.25163212
59	0xbd8cb138	-0.06869739
60	0xbe92a558	-0.28641772
61	0xbd280742	-0.041022547
62	0x3dd236ab	0.10264333
63	0x3e1812bd	0.14850898
64	0x3d4cd03e	0.050003283
65	0x3e9020f5	0.28150144
66	0x3e5b30d3	0.21405344
67	0x3ef20c9a	0.4727524
68	0x3e5ec980	0.21756554
69	0x3e392530	0.18080592
70	0x3d2da9ae	0.042398147
71	0x3e008339	0.12550057
72	0x3e86a234	0.26295626
73	0x3e18170b	0.1485254
74	0xbdf9ed64	-0.12203482
75	0x3ebb131e	0.36538023
76	0x3e88b695	0.267018
77	0x3eac5da0	0.3366518
78	0x3d9d0141	0.07666255
79	0x3d170184	0.03686668
80	0xbcf27923	-0.029598778
81	0x3e141f5b	0.14465086
82	0x3e108969	0.14114918
83	0x3e11eacb	0.14249723
84	0x3e839cce	0.2570557
85	0xbdbb1729	-0.09135277
86	0x3e66f6d7	0.225551
87	0xbaa9c5aa	-0.0012952585
88	0x3d8a5892	0.06755175
89	0x3c8214a8	0.01587899
90	0x3d3628c1	0.04447246
91	0x3d8acb09	0.06777007
92	0x3db26069	0.08709795
93	0x3c56813e	0.013092337
94	0x3eae64c8	0.34061265
95	0x38ec8e8f	0.000112799105
96	0x3e2929ed	0.165199
97	0x3eab6cb6	0.33481377
98	0x3e1c59f2	0.15268686
99	0x3eb20b95	0.3477446
100	0x3d9dd23c	0.07706115
101	0xbcd838fc	-0.02639436
102	0xbdce1fdf	-0.10064673
103	0xbd8551d7	-0.0650975
104	0x3d894df6	0.06704323
105	0x3d836bf7	0.06417077
106	0xbc969080	-0.01837945
107	0x3de4dd7c	0.11175057
108	0x3e86547a	0.26236326
109	0x3e58ea34	0.21183091
110	0x3dd3dec0	0.103452206
111	0x3d82777f	0.06370448
112	0x3e840d83	0.2579156
113	0xbd500279	-0.050783608
114	0x3e72629f	0.23670433
115	0xbe83f8a0	-0.25775623
116	0xbe97bae8	-0.29634786
117	0xbe427357	-0.18989311
118	0x3e9bf178	0.30457664
119	0xbe65e502	-0.22450641
120	0xbe0d7832	-0.13815382
121	0x3d728888	0.059212238
122	0x3d195631	0.037435714
123	0x3e6649b6	0.22489056
124	0x3e2ca8b1	0.16861226
125	0x3eec7d0f	0.46189162
126	0x3d5c94bc	0.05385278
127	0x3e7087e1	0.23489334
128	0xbe104dc6	-0.14092168
129	0x3e413ad5	0.18870099
130	0xbc9d5ed9	-0.019210266
131	0x3d31de5b	0.043424945
132	0xbc925810	-0.017864257
133	0x3d654d13	0.055981707
134	0x3ec74d67	0.3892624
135	0xbd941968	-0.07231408
136	0x3de8ae5f	0.11361384
137	0xbd464d0e	-0.04841333
138	0xbd919a85	-0.071095504
139	0xbda58998	-0.080828846
140	0xbcd5eaba	-0.026112903
141	0x3e683bf5	0.22679122
142	0x3ba411aa	0.0050069885
143	0xbdc730a0	-0.09726071
144	0xbd573ecd	-0.052550126
145	0xbd6bf0f1	-0.057602827
146	0x3e417c82	0.18895152
147	0x3cc668dd	0.024219925
148	0xbdfefee2	-0.12450959
149	0xbda542c6	-0.08069377
150	0xbc14d63b	-0.00908428
151	0x3d965e2a	0.07342179
152	0xbe9ed4f2	-0.3102184
153	0x3e3b7041	0.1830454
154	0xbd03f782	-0.032218464
155	0xbcf65a5d	-0.030072385
156	0xbdb4a5ec	-0.088207096
157	0xbd274d93	-0.040845465
158	0xbe245438	-0.16047752
159	0x3e022282	0.12708476
160	0xbcd68bd2	-0.026189718
161	0xbdc504d4	-0.096200615
162	0xbe2f665f	-0.17128895
163	0x3dbd95eb	0.0925711
164	0x3e50547a	0.20344725
165	0xbe2998ca	-0.1656219
166	0x3e8ba4f5	0.2727429
167	0xbe04f8dd	-0.12985559
168	0x3e1d0f7b	0.15337937
169	0x3badf657	0.005308907
170	0x395f5a63	0.00021300609
171	0x3bc3a4cd	0.0059705735
172	0x3daabdd9	0.08336992
173	0x3e408036	0.18798909
174	0xbd81096c	-0.06300625
175	0xbdff5ef8	-0.12469286
176	0xbdd13998	-0.10216063
177	0x3dc63f4f	0.09680044
178	0x3c8a249a	0.016863156
179	0xbe37248b	-0.17885034
180	0xbe1a71f2	-0.15082529
181	0xbc669873	-0.014074433
182	0x3d94d825	0.07267789
183	0xba531d7a	-0.00080534036
184	0xbd6e1671	-0.05812687
185	0x3e32ec04	0.17472845
186	0x3e9ff19b	0.31239018
187	0xbdee72b8	-0.116429746
188	0x3e584afe	0.21122357
189	0xbdcc3c79	-0.09972472
190	0x3c2cfd1a	0.010558391
191	0xbcdee7e8	-0.02721019
192	0x3e3d435d	0.18482728
193	0x3e3a5ea6	0.18200168
194	0x3aeb618f	0.0017958152
195	0x3de6a03f	0.11261033
196	0x3e8f0e69	0.27940682
197	0x3aea4a27	0.0017874882
198	0x3e556358	0.20838678
199	0xbd38c354	-0.045108154
200	0x3e9c5610	0.3053441
201	0x3dbb5b90	0.091483235
202	0xbdca79c9	-0.0988651
203	0x3d38afd8	0.045089573
204	0x3e64c7c3	0.22341828
205	0x3c5f70ee	0.013637764
206	0x3d0f2704	0.034949318
207	0xbd158c77	-0.03651091
208	0xbe043d07	-0.12913905
209	0xbdb99f59	-0.09063596
210	0xbdfedfd8	-0.124450386
211	0x3e5206ee	0.20510456
212	0x3e896ffc	0.2684325
213	0xbe445d3f	-0.19176196
214	0x3d28af81	0.041183
215	0x3e392a2d	0.18082495
216	0xbd14acd0	-0.03629762
217	0x3db5e5cc	0.08881721
218	0xbcf00f9a	-0.029304314
219	0xbd4abd9f	-0.049497243
220	0xbd85f057	-0.06539982
221	0x3d12e0a9	0.035858784
222	0x3ea52666	0.32255858
223	0x3b4ee96a	0.003157223
224	0x3e9ae13c	0.30249965
225	0x3cd01b4a	0.025403637
226	0xbc5e996a	-0.013586381
227	0x3e1c7981	0.15280725
228	0xbd93b210	-0.07211697
229	0xbd13f3a6	-0.036121033
230	0x3e5dea44	0.21671396
231	0xbe22294b	-0.15836065
232	0x3cb33739	0.021876918
233	0x3c80d73f	0.015727637
234	0x3c8ed813	0.017437017
235	0xbd93fcd5	-0.07225958
236	0x3ddd97d9	0.10819978
237	0x3da8fe8d	0.08251677
238	0x3e18ef1b	0.14934961
239	0x3eb0843f	0.34475896
240	0x3ec8c7a7	0.39214823
241	0xbc216180	-0.009849906
242	0x3e674f0e	0.2258875
243	0x3e5f2329	0.21790756
244	0x3d1a704e	0.03770476
245	0xb9843cf3	-0.00025222413
246	0x3c247e82	0.010039927
247	0x3e850224	0.25978196
248	0xbdf73048	-0.12069756
249	0xbe2824bd	-0.16420265
250	0x3e04332c	0.12910146
251	0x3d92b6fa	0.07163806
252	0x3e21ae29	0.15789093
253	0x3e138f87	0.1441022
254	0xbe084f05	-0.13311394
255	0x3e69d517	0.22835194

weight f4 [10, 128]
0	0x3ebd91ae	0.37025207
1	0x3cd53579	0.026026474
2	0x3e70b913	0.235081
3	0xbe657d13	-0.22410993
4	0x3e8de211	0.27711537
5	0xbe8c8c9f	-0.27451035
6	0x3e68a221	0.22718097
7	0x3d72a881	0.05924273
8	0x3f389a8d	0.72110826
9	0xbe9dec6d	-0.3084444
10	0xbef02d2d	-0.46909466
11	0xbf8136cd	-1.0094849
12	0x3f63fe57	0.89059967
13	0xbf17d380	-0.593071
14	0xbe5653f4	-0.20930463
15	0xbe3c8a63	-0.18412165
16	0x3f773ded	0.96578866
17	0xbf671903	-0.9027254
18	0x3e8a34f3	0.26993522
19	0xbe333f3c	-0.17504591
20	0x3ed4dc58	0.4157436
21	0xbd391cba	-0.04519341
22	0x3f0ec9fb	0.5577695
23	0x3de932d9	0.113866515
24	0xbf2c960a	-0.6741644
25	0xbe614812	-0.22000149
26	0xbeb25b1c	-0.34835136
27	0x3f4ea3ec	0.80718875
28	0xbf8084f7	-1.0040578
29	0xbf25398b	-0.6454093
30	0x3e7cf6f4	0.2470358
31	0x3ece74b7	0.4032342
32	0x3ea41645	0.3204824
33	0xbf8e818d	-1.1133286
34	0xbf3b5b41	-0.7318612
35	0xbf1c66cf	-0.61094373
36	0x3a87c158	0.0010357304
37	0x3eef9ca2	0.4679919
38	0x3e676baf	0.22599672
39	0x3f128351	0.5723162
40	0xbcb9072a	-0.022586424
41	0x3f9debeb	1.2337621
42	0x3f8c7737	1.0973881
43	0x3f836286	1.0264442
44	0x3eeb8b2b	0.46004614
45	0x3eb19e70	0.3469119
46	0x3f472f6d	0.7780674
47	0xbf78db27	-0.972094
48	0x3f22463c	0.6338842
49	0x3d95699a	0.072955325
50	0x3ed0ee76	0.4080693
51	0x3eddb44d	0.4330162
52	0xbf09de8f	-0.5385522
53	0xbf397df5	-0.7245782
54	0x3e2247bf	0.15847681
55	0x3f6f313a	0.9343449
56	0x3e9f52e3	0.31117925
57	0xbca8c85b	-0.02060335
58	0xbf1b7c06	-0.6073612
59	0x3f0666e2	0.52500737
60	0xbefc7760	-0.49309826
61	0x3ea90fbd	0.3301982
62	0x3e1799cf	0.14804767
63	0x3f0c2d96	0.5475706
64	0xbeaf8767	-0.3428299
65	0xbee79d8f	-0.45237395
66	0x3e12e84e	0.1434643
67	0xbf10e3dc	-0.56597686
68	0x3f302510	0.6880655
69	0x3f2d919d	0.67800313
70	0x3f225185	0.6340564
71	0x3f0f695a	0.5602013
72	0x3e25bdc9	0.16185679
73	0x3f0ef161	0.55837065
74	0x3f2f1a8b	0.68399876
75	0xbf130b77	-0.5743937
76	0xbf1fca04	-0.62417626
77	0xbe11a592	-0.14223316
78	0xbf247b05	-0.6425021
79	0xbde8b4c4	-0.11362603
80	0x3f60b34f	0.87773603
81	0x3d8fb27a	0.070164636
82	0x3e98d5d7	0.29850647
83	0x3ddb2b60	0.107016325
84	0x3d943c49	0.07238061
85	0x3f81ea53	1.0149635
86	0xbf4e0374	-0.8047402
87	0xbe9313ce	-0.28726047
88	0x3f9592c8	1.1685419
89	0x3f10fa66	0.5663208
90	0xbe9b321c	-0.30311668
91	0x3f660a0f	0.898591
92	0xbf4a1145	-0.789326
93	0x3f7bbcb1	0.98334795
94	0xbcb4c891	-0.022068294
95	0xbe147f8b	-0.14501779
96	0xbdeb16ae	-0.11478935
97	0xbeee4fdc	-0.46545303
98	0x3f13a190	0.576684
99	0xbdfd414f	-0.12365972
100	0x3f31544a	0.6926924
101	0xbe8d6a67	-0.2762024
102	0x3fa0ab69	1.255231
103	0x3df11004	0.11770633
104	0x3e061efa	0.13097754
105	0xbf561c87	-0.8363728
106	0xbf323fb0	-0.6962843
107	0x3f13d696	0.5774931
108	0xbeed5204	-0.46351635
109	0xbe7b6d7c	-0.24553484
110	0x3db88610	0.090099454
111	0x3e2f880f	0.17141746
112	0xbe6905f3	-0.22756176
113	0xbe774424	-0.24147087
114	0x3f2e8bc6	0.6818203
115	0x3ed35850	0.41278315
116	0xbf966eda	-1.1752579
117	0xbec70678	-0.38872123
118	0x3c94ca5a	0.018162895
119	0x3e07eba3	0.13273482
120	0x3f598dfe	0.8498229
121	0x3e2d8c27	0.16947995
122	0xbf2803d4	-0.6563084
123	0x3e9e5705	0.30925766
124	0xbf3faaac	-0.748698
125	0x3c26e9e7	0.010187603
126	0x3e6a3915	0.22873338
127	0x3eba029c	0.36330116
128	0xbd9d5da3	-0.076838754
129	0xbe78930f	-0.24274848
130	0xbe1754fb	-0.14778511
131	0xbe0101b9	-0.12598313
132	0x3f05911c	0.52174544
133	0xbdc6b78b	-0.09702977
134	0xbe3058fb	-0.17221443
135	0xbd2963c9	-0.04135493
136	0x3e09740a	0.13423172
137	0xbe9d6d70	-0.30747557
138	0x3e8f1bf6	0.2795102
139	0x3e62d681	0.22152139
140	0x3b7110f5	0.0036783789
141	0xbe126eb3	-0.14300041
142	0x3e8c8295	0.27443376
143	0x3ee2ef55	0.4432322
144	0xbe913e2f	-0.28367755
145	0xbe92f963	-0.28705892
146	0xbf19d89f	-0.6009616
147	0x3e40a670	0.18813491
148	0x3f80ac3a	1.0052559
149	0xbee3e2f3	-0.44509086
150	0xbf29f106	-0.663834
151	0xbd85d3c7	-0.06534534
152	0x3f158be2	0.5841657
153	0xbec0f415	-0.3768622
154	0x3f37f87f	0.7186355
155	0xbe99f6ff	-0.30071256
156	0xbf31cf71	-0.69457155
157	0xbf505659	-0.81381756
158	0x3f0b4c0c	0.54412913
159	0x3f170220	0.5898762
160	0x3eb9ca64	0.36287224
161	0xbe14e20e	-0.14539358
162	0x3fa4de7c	1.2880397
163	0x3f2c04fd	0.6719511
164	0xbe214cf1	-0.15752007
165	0xbd9922a6	-0.07477312
166	0xbf400486	-0.750069
167	0xbf8714f3	-1.0553268
168	0xbe258414	-0.16163665
169	0xbdf50bd9	-0.119651504
170	0xbfb7d64a	-1.4362271
171	0x3e6018f9	0.21884526
172	0xbef8803e	-0.4853534
173	0x3f0add2c	0.5424373
174	0xbf57bdce	-0.84273994
175	0x3ed0c804	0.407776
176	0x3e881bf9	0.2658384
177	0x3c34dfb6	0.011039665
178	0xbdfe51b8	-0.1241793
179	0xbecc91ad	-0.39954892
180	0xbd456fe7	-0.04820242
181	0xbe9a04f7	-0.30081913
182	0x3fa2c6d4	1.2716928
183	0xbedab243	-0.42714128
184	0x3e8a30db	0.269904
185	0x3e42100a	0.18951431
186	0xbd99c4e5	-0.07508258
187	0xbe3ffc5b	-0.1874861
188	0x3eaf6a4b	0.34260783
189	0x3e5c449b	0.21510546
190	0xbebb7dc2	-0.36619383
191	0xbe46a45e	-0.19398639
192	0x3f19090d	0.59779435
193	0x3f2abd4b	0.6669509
194	0xbf9c08fc	-1.2190242
195	0xbf4d7c28	-0.8026757
196	0xbe9400a6	-0.28906745
197	0xbf890c61	-1.0706903
198	0x3f03627a	0.5132214
199	0xbf1ccaf7	-0.612472
200	0x3ed01ff4	0.40649378
201	0xbe4ab9a7	-0.19797383
202	0x3eac36d6	0.33635587
203	0xbee8d3e2	-0.45474154
204	0x3f81f501	1.0152894
205	0x3e2963ca	0.16541973
206	0xbf526a42	-0.82193387
207	0x3f0584b0	0.5215559
208	0xbf4d900c	-0.80297923
209	0x3e7ee995	0.24893792
210	0xbf6f110d	-0.9338539
211	0xbc82c999	-0.01596527
212	0xbee586f4	-0.44829524
213	0x3f74246a	0.95368063
214	0x3eababf3	0.33529624
215	0xbed4ebdf	-0.41586205
216	0x3f465b9c	0.77483535
217	0x3f1ff0b3	0.6247665
218	0xbe8b7f81	-0.27245715
219	0xbf471345	-0.7776378
220	0xbe975405	-0.2955629
221	0x400c930a	2.1964746
222	0x3efe7c3f	0.49704167
223	0xbf1d75ae	-0.6150769
224	0x3e7af4af	0.24507402
225	0xbca82495	-0.020525256
226	0x3f08a780	0.53380585
227	0x3e744634	0.23854905
228	0xbe807fad	-0.2509741
229	0x3f47d6f0	0.78062344
230	0x3f09a6d6	0.53770196
231	0xbf9dba0f	-1.2322406
232	0x3fa57383	1.2925876
233	0x3fdb3383	1.7125095
234	0xbe07b65e	-0.13253161
235	0x3e742aa0	0.23844385
236	0xbe87e7e3	-0.26544103
237	0x3f3690b7	0.7131457
238	0x3ecf2de2	0.40464693
239	0x3f23e88c	0.64026713
240	0xbeb53966	-0.35395354
241	0xbf890563	-1.0704769
242	0x3e02142a	0.12703004
243	0xbe2222d5	-0.158336
244	0x3fb4f22f	1.4136409
245	0x3fc51706	1.5397651
246	0xbe257344	-0.16157252
247	0xbf8d35c4	-1.1032033
248	0xbda9e8af	-0.08296334
249	0x3ddd3643	0.10801365
250	0xbf41e55a	-0.7574059
251	0x3f3109fa	0.6915585
252	0x3f9a7476	1.2066791
253	0x3e450f33	0.1924408
254	0x3ea12726	0.3147518
255	0x3f10eb2f	0.5660886

bias f4 [10]
0	0x3c5b4e1b	0.013385321
1	0x3e0786ed	0.13235064
2	0x3c9ce597	0.019152446
3	0x3e6f8054	0.23388797
4	0xbe3482d5	-0.17628033
5	0x3e550db5	0.2080601
6	0xbe1b0576	-0.15138802
7	0x3cf96525	0.030443737
8	0x3e10c72c	0.14138478
9	0xbcc155a7	-0.023600413
