Semi-supervised Learning/model.pth (torch, 536710 bytes, 6 tensors)

weight_ih_l0 f4 [512, 128]
0	0x3dae57c0	0.08512831
1	0xbca4f00b	-0.020133993
2	0xbc3c8adc	-0.011507716
3	0x3c9ad353	0.018899595
4	0x3d112370	0.035434186
5	0xbdcdb0c1	-0.10043479
6	0xbd1a250a	-0.03763298
7	0xbd6e1976	-0.05812975
8	0xbd024f49	-0.031813893
9	0xbcfe2ab7	-0.031026227
10	0x3c32d843	0.010915819
11	0xbcd75168	-0.026283935
12	0xbd281da4	-0.041043893
13	0xbc5e5584	-0.013570193
14	0xbd466e11	-0.04844481
15	0xbd7f05d5	-0.06226142
16	0x3d2f8e20	0.04286015
17	0xbc86b1bf	-0.016442178
18	0x3c1fec71	0.009760962
19	0x3b519a2b	0.003198276
20	0xbc6cf1f7	-0.014461986
21	0xbdccfb17	-0.10008829
22	0xbc35439d	-0.011063484
23	0xbdad0f89	-0.08450229
24	0xbcc0a33d	-0.023515338
25	0xbe080b6b	-0.13285606
26	0xbd7083d0	-0.058719456
27	0xbb3b12b9	-0.0028545095
28	0xbd8b8578	-0.068125665
29	0xbd9c63f9	-0.07636256
30	0xbcb44449	-0.022005217
31	0xbdd3fbc2	-0.10350753
32	0xbdc0edaf	-0.094203345
33	0xbd844489	-0.064583845
34	0xbdce61ed	-0.100772716
35	0xbd947684	-0.072491676
36	0xbd42e1b2	-0.04757852
37	0xbd907a9c	-0.07054636
38	0xbdd896b7	-0.105756216
39	0xb9810a0a	-0.00024612277
40	0xbe1d3e37	-0.15355764
41	0xbe08a2ae	-0.13343307
42	0xbdb44d63	-0.08803823
43	0xbdea6c03	-0.11446383
44	0xbe2a9610	-0.16658807
45	0xbdac32da	-0.08408137
46	0xbe1325f3	-0.14369945
47	0xbd9b2098	-0.07574576
48	0xbdcd4837	-0.100235395
49	0xbe1fb9e4	-0.15598255
50	0xbe3e0401	-0.18556215
51	0xbe3b6339	-0.18299569
52	0xbdd12be2	-0.10213448
53	0xbdfb8062	-0.122803465
54	0xbc4a8bd4	-0.012362439
55	0xbd61696a	-0.05503217
56	0xbe40ab1d	-0.18815275
57	0xbdd52dc8	-0.10409123
58	0xbe265964	-0.16245037
59	0xbd005b27	-0.03133693
60	0xbdd777ea	-0.10520919
61	0xbe00d0a3	-0.12579589
62	0xbddde93d	-0.10835502
63	0xbd23bd56	-0.039975487
64	0xbdcce132	-0.1000389
65	0x3d693292	0.056932993
66	0x3d2c46d4	0.042059734
67	0x3d8d91ce	0.06912576
68	0x3d6665d7	0.056249466
69	0xbd5ef190	-0.05442959
70	0xbc5afb15	-0.013365527
71	0x3db0107a	0.08596893
72	0xbd82f210	-0.06393826
73	0x3dce6008	0.1007691
74	0xbd55e8ed	-0.05222409
75	0x3c506f4c	0.012721848
76	0xbd810c1a	-0.06301136
77	0xbd51d517	-0.05122861
78	0xbc84e332	-0.016221616
79	0x3d8d2867	0.06892472
80	0xbda6a668	-0.08137208
81	0x3d35a425	0.044345994
82	0xbd8550e4	-0.06509569
83	0x3ca42fe3	0.020042365
84	0xbd98d70f	-0.07462894
85	0xbd86f676	-0.065899774
86	0x3cd44111	0.025909932
87	0xbd816599	-0.06318206
88	0x3d9f84b6	0.077889845
89	0xbd1c869f	-0.038214322
90	0xbbc6462a	-0.0060508447
91	0xbd24e226	-0.040254734
92	0xbc298e5d	-0.010348883
93	0x3bd87c66	0.0066066263
94	0xbd6eadb4	-0.058271125
95	0x3cd0fdf5	0.025511721
96	0xbd9c13a8	-0.07620937
97	0xbdea5bc7	-0.114432864
98	0xbdd63408	-0.10459143
99	0xbdeaa04c	-0.114563555
100	0xbd6e022d	-0.058107544
101	0xbd97d02f	-0.07412755
102	0xbded08f0	-0.1157397
103	0xbe098648	-0.1343013
104	0xbda6e553	-0.08149209
105	0xbdb80dbd	-0.08986995
106	0xbd8c2164	-0.06842306
107	0xbd10b5bc	-0.035329565
108	0xbe364632	-0.17800215
109	0xbddf2ddd	-0.108974196
110	0xbda9f0e2	-0.08297898
111	0xbe3d44a8	-0.18483222
112	0xbd35ceea	-0.04438678
113	0xbdf39848	-0.1189428
114	0xbe0e25d9	-0.13881625
115	0xbe2faf9c	-0.17156833
116	0xbe060387	-0.13087283
117	0xbe26d55d	-0.16292329
118	0xbda9513c	-0.08267447
119	0xbce90ced	-0.028448546
120	0xbd9643e4	-0.07337168
121	0xbdd9e98c	-0.10640249
122	0xbd99086d	-0.0747231
123	0xbda83575	-0.08213321
124	0x3d748dbd	0.059705485
125	0x3b32e272	0.0027295616
126	0xbc788089	-0.015167364
127	0x3d3efacd	0.0466259
128	0xbe531e99	-0.20617141
129	0xbe700c56	-0.23442206
130	0xbdd4c1a3	-0.10388496
131	0xbd26748f	-0.040638503
132	0xbd9e66a9	-0.077344246
133	0xbd14283c	-0.036171183
134	0xbe0db399	-0.13838042
135	0xbd5fc6c1	-0.054632906
136	0xbd893eba	-0.06701417
137	0x3ae4c6d2	0.0017454273
138	0xbcf00929	-0.029301243
139	0x3cb545ca	0.022128005
140	0x3cf16253	0.02946583
141	0x3d8b7a49	0.068104334
142	0x3dd39ece	0.10333024
143	0x3c7fc761	0.0156115005
144	0x3b9cadd7	0.0047814655
145	0x3dd73e24	0.10509899
146	0x3da5090a	0.08058365
147	0x3d66de75	0.056364495
148	0x3dff0c50	0.1245352
149	0x3db087e3	0.08619668
150	0x3e6107ca	0.21975628
151	0x3e764d17	0.24052845
152	0x3e0a7339	0.13520516
153	0x3e132a58	0.14371622
154	0x3e2c9ac3	0.16855912
155	0x3e5137be	0.2043142
156	0x3e84b6a7	0.25920603
157	0x3e9a4d27	0.30136988
158	0x3ea536e3	0.32268438
159	0x3e4d7843	0.20065407
160	0x3eab8039	0.33496264
161	0x3e8fa071	0.28052095
162	0x3eb5508e	0.3541302
163	0x3e8d507d	0.2760047
164	0x3ea65c6b	0.32492384
165	0x3ea1b662	0.3158446
166	0x3e30216c	0.1720025
167	0x3e58f5fa	0.21187583
168	0x3e62db4f	0.22153972
169	0x3ea4e601	0.3220673
170	0x3e9d5f6f	0.30736873
171	0x3e7bf755	0.24606068
172	0x3eb76ede	0.35826772
173	0x3e7b296b	0.24527518
174	0x3e93fea8	0.28905225
175	0x3ec96aa1	0.39339164
176	0x3e6a3959	0.22873439
177	0x3e9ce075	0.30639997
178	0x3ea276e0	0.3173132
179	0x3e30a7f0	0.17251563
180	0x3e65646d	0.2240159
181	0x3dba1269	0.09085543
182	0x3dd871df	0.10568594
183	0x3e402652	0.18764618
184	0x3e1d3e69	0.15355839
185	0x3d4ef178	0.05052325
186	0x3cb33599	0.021876143
187	0x3df02a95	0.11726872
188	0x3e2ce68f	0.16884826
189	0x3c9daf84	0.019248731
190	0x3dce0058	0.10058659
191	0x3caa1d37	0.020765884
192	0x3d4229fc	0.04740332
193	0x3d80462d	0.06263385
194	0x3d4358c9	0.047692094
195	0x3d90724e	0.07053052
196	0x3d327038	0.04356405
197	0xbb3b6a88	-0.0028597433
198	0xbd879c76	-0.066216394
199	0x3df530a8	0.11972171
200	0xbc989d3a	-0.018629659
201	0x3dd762e9	0.105169125
202	0x3e2ab1d2	0.16669396
203	0x3cbe1c84	0.023206957
204	0x3ccf202f	0.025283901
205	0x3dc039f8	0.09386057
206	0x3dd4717c	0.10373208
207	0x3dfb9403	0.1228409
208	0x3d1225cf	0.03568059
209	0x3dc56bf7	0.09639733
210	0x3e20c09d	0.15698476
211	0x3e3c22d9	0.18372668
212	0x3df2d9fc	0.118579835
213	0x3dd94222	0.10608317
214	0x3d237f94	0.03991659
215	0x3d80d0dc	0.06289837
216	0x3dbcb972	0.092150584
217	0x3d4dabef	0.050212797
218	0xbd6884c8	-0.056767255
219	0x3bd7535e	0.0065712174
220	0x3ba3ca84	0.004998507
221	0x3c9caaa1	0.019124331
222	0xbdb0b558	-0.086283386
223	0xbde6cd32	-0.11269607
224	0xbb40d1b1	-0.002942186
225	0x3cfe7fd1	0.031066807
226	0xbd4ce511	-0.050023142
227	0xbcd3c70e	-0.025851753
228	0xbd0b39b7	-0.033990588
229	0x3d6484ed	0.05579083
230	0x3dc2d57d	0.09513376
231	0x3c859bf6	0.01630972
232	0x3d462a76	0.048380338
233	0x3e1c575f	0.15267704
234	0x3e0264b5	0.12733729
235	0x3e5bf7de	0.21481273
236	0x3e851776	0.25994462
237	0x3e1b413c	0.15161604
238	0x3e30dda4	0.17272049
239	0x3e85c96d	0.26130238
240	0x3e590396	0.21192774
241	0x3e64a872	0.22329882
242	0x3e1433a7	0.14472829
243	0x3de89941	0.11357356
244	0x3d8a9aeb	0.067678295
245	0x3e0f66ad	0.14004011
246	0x3e2d4c4e	0.16923639
247	0x3df57ee2	0.119870916
248	0x3c8f9006	0.01752473
249	0x3dc4e4d6	0.096139595
250	0xbd95cc20	-0.073143244
251	0xbd275b95	-0.040858824
252	0xbad5e108	-0.0016317675
253	0xbdf5a4b9	-0.11994309
254	0xbd26187b	-0.04055069
255	0xbe3df919	-0.18552054

weight_hh_l0 f4 [512, 128]
0	0xbd003cba	-0.031307913
1	0xbde8fcbc	-0.1137633
2	0x3dd2876a	0.102797344
3	0xbdc9cfb8	-0.09854072
4	0x3deb7939	0.11497731
5	0xbd104293	-0.03521974
6	0xbd9b4674	-0.07581797
7	0xbd3c1cda	-0.045925952
8	0x3d801cfe	0.0625553
9	0x3e23f4f9	0.16011418
10	0x3a6fc769	0.0009146841
11	0x3e226f87	0.15862857
12	0xbd944f7c	-0.07241723
13	0xbb9cde7a	-0.0047872635
14	0x3abeb24a	0.0014548984
15	0xbdcb6fab	-0.09933408
16	0xbd7bdc1b	-0.061489206
17	0xbd9c9fdc	-0.07647678
18	0xbd2f19b8	-0.042749137
19	0xbd509c48	-0.05093029
20	0xbd77dbb8	-0.060512275
21	0x3ddd9f0d	0.10821352
22	0x3e299396	0.16560206
23	0x3dc03da8	0.0938676
24	0xbd4068bb	-0.04697488
25	0x3db2325a	0.0870101
26	0x3d3480f1	0.04406828
27	0x3db203c6	0.08692126
28	0xbd3d16b8	-0.046164244
29	0xbd82621e	-0.063663706
30	0x3d0110e5	0.031510253
31	0x3d37ccb7	0.044872966
32	0x3b9668d4	0.004590133
33	0x3b511b70	0.0031907223
34	0xbcb2bcdf	-0.021818576
35	0xbe0f3e7e	-0.13988683
36	0xbd204c59	-0.03913531
37	0x3c8e6334	0.017381288
38	0x3dc0a8f0	0.09407222
39	0xbd9599b1	-0.07304705
40	0x3d645313	0.05574329
41	0x3da9c313	0.082891606
42	0x3e16d8a1	0.14731075
43	0xbad525cf	-0.0016261878
44	0xbc189d12	-0.009314792
45	0xbdb1cc1e	-0.086815104
46	0x3e16a932	0.1471298
47	0xbd430b28	-0.04761806
48	0xbe209dea	-0.1568524
49	0xbdb6e6f3	-0.08930769
50	0xbd685edc	-0.05673109
51	0x3dc687a3	0.096938394
52	0xbc6aea7b	-0.014338131
53	0xbcead3d5	-0.028665463
54	0xbd8bf765	-0.06834296
55	0x3d2c2e5a	0.04203639
56	0xbc0ae885	-0.008478289
57	0x3e04ba67	0.12961732
58	0x3d818d18	0.063257396
59	0x3d9e435d	0.07727692
60	0xbd421ee4	-0.04739274
61	0xbd909413	-0.07059493
62	0x3d33c577	0.04388949
63	0xbd8f8e0a	-0.07009514
64	0x3e582fdc	0.21112007
65	0xbe083c3f	-0.13304232
66	0x3d1a42d9	0.037661407
67	0xbd9f6634	-0.077831656
68	0x3d553bb9	0.05205891
69	0x3e04042a	0.12892213
70	0x3d36aa7e	0.044596188
71	0x3c9158e2	0.017742578
72	0xbdde2b4b	-0.10848101
73	0xbdaf47e6	-0.085586354
74	0xbdb214dc	-0.08695385
75	0xbe117acd	-0.14207001
76	0x3c22e1ff	0.009941577
77	0xbd205337	-0.03914186
78	0x3c512e5e	0.012767402
79	0xbb840010	-0.0040283278
80	0xbce83ad3	-0.028348362
81	0xbdd9cc9f	-0.106347315
82	0xbe1def0a	-0.15423217
83	0x3cbbf1a0	0.022942364
84	0xbda6713b	-0.08127066
85	0x3ce49c28	0.027906492
86	0x3db029fd	0.08601759
87	0xbd8e94a7	-0.06961947
88	0x3d922404	0.07135776
89	0xbd146606	-0.03623011
90	0xbd5448ef	-0.051827367
91	0x3d3fb8d3	0.04680712
92	0xbcc93ebf	-0.024566052
93	0xbc4081d3	-0.0117497025
94	0x3c0548e0	0.008135051
95	0xbc52ee2c	-0.012874167
96	0xba522a98	-0.0008017211
97	0x3d45cf11	0.048293177
98	0xbd285e3b	-0.04110549
99	0x3cc2546c	0.023721896
100	0x3d28234c	0.041049287
101	0x3e2ba407	0.1676179
102	0xbe0a06cc	-0.13479155
103	0xbd474dc2	-0.04865814
104	0x3d58157e	0.05275487
105	0xbda627d9	-0.08113069
106	0x3d9b6c17	0.07588976
107	0x3a854d2a	0.0010170091
108	0x3c5044cb	0.012711714
109	0xbd5cdb50	-0.05392009
110	0x3e18aca9	0.14909615
111	0xbe03a4f6	-0.12855896
112	0x3de4258e	0.111399755
113	0x3e0f41b7	0.13989912
114	0xbd9a1f69	-0.07525522
115	0x3cca4c33	0.024694538
116	0xbdb2d597	-0.08732145
117	0xbbf8f94f	-0.0075980793
118	0x3ceb070e	0.028689887
119	0x3c4b3857	0.012403569
120	0xbc944c98	-0.018102929
121	0x3d10d5e0	0.035360217
122	0x3e029d01	0.12755205
123	0x3c954f3c	0.018226258
124	0xbc80c85b	-0.015720537
125	0xbd019023	-0.0316316
126	0x3d8e943b	0.069618665
127	0x3d82595c	0.063647
128	0x3e03b955	0.12863667
129	0xbca95fc1	-0.020675542
130	0xbebc2715	-0.36748567
131	0x3e06d7a3	0.13168196
132	0xbc1289ca	-0.008943984
133	0x3e26b8f2	0.16281489
134	0xbef5359b	-0.4789246
135	0xbe9afa53	-0.30269107
136	0xbc34d891	-0.011037962
137	0x3d11790d	0.035515834
138	0x3dc90410	0.09815228
139	0x3d3640f0	0.044495523
140	0x3df006f1	0.11720074
141	0xbe4cfcaa	-0.20018259
142	0x3e30ce67	0.17266236
143	0xbe16a0c3	-0.14709763
144	0xbcf38ebf	-0.029731153
145	0xbeae8107	-0.34082815
146	0x3e024091	0.12719943
147	0xbdd69731	-0.10478056
148	0x3db28d72	0.08718385
149	0xbe8d2ade	-0.27571768
150	0xbd07ba1d	-0.033136476
151	0xbd9880db	-0.07446452
152	0x3d6fb03e	0.058517687
153	0x3e633cae	0.22191116
154	0xbec22b25	-0.37923542
155	0x3e838754	0.25689185
156	0xbcea083e	-0.028568383
157	0xbe21ccf1	-0.15800835
158	0x3e015648	0.1263057
159	0x3dc29006	0.095001265
160	0xbd24dde2	-0.040250666
161	0xbeb8cddf	-0.36094567
162	0xbdee9237	-0.11648982
163	0xbeec370d	-0.4613575
164	0x3ea83b66	0.32857817
165	0x3deca1db	0.11554309
166	0x3e596682	0.2123051
167	0x3dff3c5b	0.12462684
168	0x3d631046	0.05543544
169	0x3dbeefbd	0.0932307
170	0x3e5d2221	0.2159505
171	0x3e529e9a	0.20568314
172	0x3d69ec30	0.05711001
173	0xbdbc2700	-0.09187126
174	0x3cc4451c	0.023958735
175	0xbe53b868	-0.20675814
176	0xbda0a0a8	-0.07843143
177	0x3e579b85	0.2105542
178	0xbdf1beaa	-0.118039444
179	0x3e8ec52b	0.27884802
180	0x3d141dd0	0.036161244
181	0x3d87cdca	0.06631048
182	0xbe9e1b5c	-0.3088025
183	0x3e09047f	0.13380621
184	0x3d874388	0.066046774
185	0xbdd69ca8	-0.104790986
186	0xbcf8e231	-0.030381294
187	0x3db125d2	0.08649792
188	0xbd123cf5	-0.035702664
189	0xbdfa4e0b	-0.12221917
190	0xbe615bb0	-0.22007632
191	0x3e4a29c0	0.19742489
192	0x3e22f9e5	0.1591564
193	0x3d4693ea	0.048480906
194	0x3dcbfab5	0.09959928
195	0x3da36bec	0.07979569
196	0xbe12d4ac	-0.1433894
197	0x3de83266	0.11337738
198	0x3dbb2e7d	0.09139726
199	0xbb6d36f1	-0.0036196078
200	0x3d8f601d	0.07000754
201	0xbd565b1e	-0.05233299
202	0xbe14e8c1	-0.14541914
203	0xbdef5ae9	-0.116872616
204	0xbce96471	-0.028490277
205	0x3e255cd0	0.16148686
206	0xbe7a6426	-0.24452266
207	0xbd0f4139	-0.03497431
208	0xbd4cbede	-0.049986713
209	0xbe223d05	-0.1584359
210	0x3cde2e92	0.027121816
211	0xbdf85f42	-0.12127544
212	0xbe91ae6c	-0.28453386
213	0x3c57e7ea	0.013177851
214	0xbd1a1495	-0.037617285
215	0xbddbd561	-0.10734058
216	0x3d943e87	0.07238489
217	0x3e3beaf1	0.18351342
218	0xbd0a0a9a	-0.033701517
219	0xbe4b209e	-0.19836661
220	0xbeb88d2f	-0.36045215
221	0x3e15db55	0.1463445
222	0x3ed7d0c1	0.42151454
223	0xbe540d3d	-0.20708175
224	0xbdc63ec4	-0.0967994
225	0xbcae5f15	-0.021285573
226	0xbdfeccd6	-0.12441413
227	0xbd616245	-0.055025358
228	0x3ddffc89	0.10936839
229	0x3c8b6bcf	0.01701918
230	0xbbb43653	-0.00549964
231	0x3ecb7a8c	0.39741933
232	0xbd1d8492	-0.038456507
233	0xbdf184aa	-0.11792882
234	0x3e117e47	0.14208327
235	0x3c8c143f	0.017099498
236	0xbd0a4b6a	-0.033763327
237	0xbef461ae	-0.47730774
238	0x3d03cc12	0.03217704
239	0x3d64413f	0.055726286
240	0x3d9a846e	0.0754479
241	0x3e58956b	0.21150748
242	0x3d1fb382	0.03898955
243	0xbe005076	-0.12530693
244	0x3da687f5	0.081314005
245	0x3d3c6ce1	0.046002273
246	0xbd127df8	-0.035764664
247	0x3daf2324	0.085516244
248	0xbd7bb211	-0.061449114
249	0xbc3297f1	-0.0109004835
250	0x3e40a25c	0.18811935
251	0x3d9a94f2	0.0754794
252	0x3e6da649	0.23207964
253	0xbe1dd606	-0.15413675
254	0xbe255437	-0.16145407
255	0x3bdffdf7	0.006835695

bias_ih_l0 f4 [512]
0	0x3bddc1ae	0.006767473
1	0xbde0ebc7	-0.10982471
2	0x3e66a237	0.22522818
3	0x3e375ad7	0.17905746
4	0x3d81a40e	0.06330119
5	0x3e185474	0.14875966
6	0x3e63ecc4	0.22258288
7	0x3de85a52	0.11345352
8	0x3e52d5d4	0.20589381
9	0xbd3d1bf5	-0.04616924
10	0x3e43f373	0.19135837
11	0xbe812e08	-0.25230432
12	0x3ea37b41	0.31929973
13	0x3e85b349	0.26113346
14	0x3ddb764b	0.10715922
15	0x3e574589	0.2102262
16	0x3e28a057	0.16467415
17	0x3d858e20	0.06521249
18	0x3e16f7fd	0.14743038
19	0x3cbc97aa	0.023021538
20	0x3e46c6eb	0.19411819
21	0x3d7df43d	0.062000502
22	0x3dd1d93a	0.10246511
23	0x3e4e1a5c	0.20127243
24	0x3dec70bc	0.1154494
25	0xbbb4b394	-0.0055145714
26	0x3e89202f	0.26782367
27	0x3e456665	0.19277342
28	0x3de49ee3	0.11163118
29	0x3db5e204	0.08881
30	0x3da3cbd5	0.07997862
31	0x3df48589	0.11939532
32	0x3e562028	0.20910704
33	0x3ce364b8	0.027757987
34	0x3dfcd8bd	0.12346027
35	0x3daca3e6	0.08429699
36	0x3c925286	0.017861616
37	0xbc3185d6	-0.010835132
38	0x3e410b10	0.18851876
39	0x3c7ca0a0	0.015419155
40	0xbba1ec95	-0.004941533
41	0x3dd782ef	0.105230205
42	0x3e12ac0a	0.1432344
43	0xbd2fc8da	-0.042916156
44	0x3d9e99a8	0.07744151
45	0x3cbfd311	0.023416074
46	0x3c808c19	0.015691804
47	0x3e8dc2d7	0.27687714
48	0x3d2753e1	0.040851478
49	0x3df2f3b0	0.11862886
50	0x3d184529	0.03717533
51	0x3e437305	0.19086845
52	0x3dfc972d	0.12333522
53	0xbb906285	-0.0044062757
54	0x3e0e13bc	0.13874716
55	0x3e100b88	0.14066899
56	0xbd2b37e4	-0.04180135
57	0x3d2896bd	0.04115938
58	0x3e4a4cc0	0.1975584
59	0x3dc52d2f	0.09627759
60	0xbdf6aeaf	-0.12045037
61	0x3c12a127	0.0089495545
62	0xbd213db7	-0.039365496
63	0x3e2bc0b3	0.16772728
64	0x3d291196	0.041276537
65	0x3c819695	0.015818873
66	0x3e02dd42	0.12779716
67	0x3d343952	0.043999977
68	0xbbc91569	-0.0061365855
69	0xbb9ea351	-0.004841246
70	0x3dcd14b0	0.100137115
71	0x3eb21a0a	0.3478549
72	0xbdce36fb	-0.100690804
73	0x3d9d9b68	0.07695657
74	0x3e07d8f8	0.13266361
75	0x3db46109	0.088075705
76	0x3e0cb36d	0.1374032
77	0x3dd3a9a0	0.10335088
78	0x3e4a2364	0.19740063
79	0x3d34cc66	0.044140242
80	0x3e00e12b	0.12585895
81	0x3e3f2e89	0.18670096
82	0x3e229426	0.15876827
83	0x3df6ae92	0.120450154
84	0x3e35dfca	0.1776115
85	0x3e10ccb3	0.14140587
86	0x3d444d4c	0.04792528
87	0x3dd249f5	0.102680124
88	0x3dca02ba	0.09863801
89	0x3d1d66dd	0.038428176
90	0x3e23b29e	0.15986106
91	0x3df53ee5	0.11974887
92	0xbcaf64e6	-0.021410417
93	0xbd92566f	-0.07145392
94	0x3e3cbd16	0.18431506
95	0x3e14d6ae	0.14535019
96	0x3b3adaaa	0.0028511682
97	0x3dab264c	0.08356914
98	0x3e23bae3	0.1598926
99	0x3d783a2a	0.060602345
100	0x3d43e199	0.04782257
101	0xbe0ba63b	-0.1363763
102	0x3e26815d	0.16260286
103	0x3e677285	0.2260228
104	0x3e40dd4e	0.18834421
105	0x3d2eca62	0.042673476
106	0x3df30039	0.11865277
107	0xbc6018a0	-0.013677746
108	0x3dab8969	0.08375818
109	0x3e7b9a79	0.24570645
110	0x3e6ea120	0.23303652
111	0x3dfc43ca	0.12317617
112	0x3ddd97c3	0.10819962
113	0x3e896cfe	0.26840967
114	0x3c4d0c2b	0.012515108
115	0x3e082e99	0.13299026
116	0xbe3fcc56	-0.18730292
117	0xbd82ca98	-0.06386298
118	0xbe0bf2e6	-0.13666877
119	0xbdeca7a4	-0.115554124
120	0x3c4c816c	0.012482028
121	0x3e228ab8	0.1587323
122	0x3d73e737	0.059546676
123	0xbd3d5383	-0.04622222
124	0x3dacc519	0.08436031
125	0xbd6f50d4	-0.058426693
126	0x3c2f2b92	0.01069154
127	0x3e3cc0ec	0.18432969
128	0x3dbb2bdc	0.09139225
129	0xbe42fd3f	-0.19041918
130	0xbd92251d	-0.07135985
131	0x3d46fd89	0.048581634
132	0x3d3abe2a	0.04559151
133	0x3d910b01	0.07082177
134	0x3ce1b283	0.027550941
135	0x3d0c3d97	0.034238424
136	0x3dea4b5e	0.114401564
137	0x3bad08ee	0.0052806055
138	0xbdaf3c98	-0.08556479
139	0x3d6e06ce	0.05811196
140	0x3c3e2798	0.01160612
141	0xbe041cb9	-0.12901582
142	0x3d604eb8	0.054762572
143	0x3d991721	0.074751146
144	0xbdc57d36	-0.09643023
145	0x3d8fb373	0.07016649
146	0x3dc35621	0.09537912
147	0x3bd2f469	0.0064378274
148	0xbc5377ef	-0.012907012
149	0xbba2aeb2	-0.004964673
150	0xbe40a34f	-0.18812297
151	0xbd936049	-0.07196099
152	0xbdd59ec0	-0.1043067
153	0xbd50d0c5	-0.05098035
154	0xbe3c5e59	-0.18395366
155	0x3d8f3db1	0.069941886
156	0xbc99c15b	-0.018768957
157	0xbcb753c5	-0.022378812
158	0xbc96d6d4	-0.018412985
159	0x3d02290f	0.031777438
160	0x3dd0a375	0.10187427
161	0x3ce3f4fc	0.027826779
162	0xbe0c6468	-0.13710177
163	0xbce6990a	-0.028149147
164	0x3e3ad503	0.1824532
165	0x3e06c287	0.13160144
166	0x3c3432ac	0.010998409
167	0x3e60ee23	0.21965842
168	0x3ab46b5f	0.0013764909
169	0x3e16ed3e	0.14738938
170	0xbdc8efa9	-0.098113365
171	0xbe138c5e	-0.14409015
172	0xbdb4f258	-0.08835286
173	0xbceb17df	-0.028697906
174	0xbda1a37b	-0.078925095
175	0x3e0a8e40	0.13530827
176	0xbba5ae06	-0.0050561456
177	0xbd4d9d85	-0.05019905
178	0x3cc3cf0d	0.02390244
179	0xbc84e32a	-0.016221602
180	0x3d34fd63	0.04418696
181	0x3c9a5f0a	0.018844146
182	0xbd63e97a	-0.055642582
183	0x3d65ec1f	0.056133386
184	0xbcd5fdff	-0.026122091
185	0x3cc76f8f	0.024345187
186	0xbc3fa1bc	-0.011696275
187	0xbd4deec8	-0.050276548
188	0xbe0dc899	-0.13846053
189	0x3cb70111	0.022339376
190	0x3dba500b	0.09097298
191	0xbda7f280	-0.0820055
192	0x3d1b3700	0.03789425
193	0xbe0287c3	-0.12747101
194	0x3d23d9d4	0.04000266
195	0xbc32d8e1	-0.010915966
196	0x3e045aa0	0.12925196
197	0xbd46f6bb	-0.048575144
198	0xbde9c396	-0.11414258
199	0xbaa7d9e9	-0.0012806031
200	0xbce3443a	-0.027742494
201	0xbca8072f	-0.020511238
202	0xbd3fa039	-0.04678366
203	0x3d492792	0.049110003
204	0xbd8451c0	-0.06460905
205	0x3d4a33bf	0.049365755
206	0xbe274668	-0.16335452
207	0xbb021812	-0.0019850773
208	0xbd2cbe21	-0.04217351
209	0x3be52b48	0.006993685
210	0x3d72528f	0.059160765
211	0xbcc216c6	-0.0236925
212	0xbd5e6c6c	-0.054302618
213	0x3de0473f	0.10951089
214	0x3cb9fed8	0.022704527
215	0xbd644b10	-0.055735648
216	0x3dfa2f92	0.122161046
217	0xbc5aec68	-0.013362028
218	0x3dd60bec	0.10451493
219	0xbe09cd30	-0.13457179
220	0x3de742ef	0.112920634
221	0xbd2c6e6c	-0.042097494
222	0x3b1b704b	0.0023718055
223	0xbe00ec13	-0.12590055
224	0xbe0382f4	-0.12842923
225	0x3bcc05ef	0.0062262933
226	0x3d71fddf	0.05908
227	0xbbcf0451	-0.006317653
228	0xbc8ec7bb	-0.017429223
229	0x3df2ca5e	0.11855005
230	0x3e092107	0.13391505
231	0xbdafcdb2	-0.08584155
232	0xbd842743	-0.06452801
233	0x3d147c6a	0.036251463
234	0x3e1461dd	0.14490457
235	0xbe2fcfe1	-0.17169143
236	0xbd2366ef	-0.039893087
237	0x3d79b919	0.06096754
238	0xbd205fa3	-0.039153706
239	0xbc559ddd	-0.013038126
240	0x3d2a1e41	0.04153276
241	0x3da66e14	0.081264645
242	0x3e248684	0.16066939
243	0xbd9da4bf	-0.076974384
244	0xbc93a04b	-0.01802077
245	0x3da6a24b	0.08136424
246	0x3cdac97c	0.026707403
247	0xbcfe5d49	-0.031050341
248	0x3ac08b68	0.0014689984
249	0x3df57987	0.1198607
250	0x3b8b836f	0.0042576115
251	0xbe0a18bc	-0.13485998
252	0x3ca42af9	0.020040022
253	0xbe24ec40	-0.16105747
254	0x3e335044	0.17511088
255	0xbc59e3fe	-0.0132989865

bias_hh_l0 f4 [512]
0	0x3debd71e	0.1151564
1	0xbba27922	-0.004958288
2	0x3e0a79d8	0.13523042
3	0x3e25e702	0.16201404
4	0x3da1c519	0.078989215
5	0x3da1f696	0.07908361
6	0x3e61ea71	0.22062089
7	0x3e873b21	0.264123
8	0x3e422dc3	0.18962769
9	0xbd99dfaf	-0.075133674
10	0x3e09e727	0.13467084
11	0xbe6dc29a	-0.23218766
12	0x3e959724	0.29216874
13	0x3e5bcd6e	0.21465084
14	0x3db12786	0.086501166
15	0x3e5aaef4	0.21355802
16	0x3e5a6b54	0.21330005
17	0x3dfb5961	0.12272907
18	0x3dd9eb67	0.106406026
19	0x3c5c6b11	0.013453261
20	0x3d8cb60f	0.068706624
21	0x3e40685a	0.18789807
22	0x3da47c8b	0.08031567
23	0x3e1cda00	0.15317535
24	0x3d9f5d10	0.07781422
25	0xbd825c29	-0.063652344
26	0x3e240d48	0.16020691
27	0x3dfe3e34	0.12414208
28	0x3ddd6749	0.10810716
29	0x3e0c3908	0.1369363
30	0x3e025aa3	0.12729888
31	0x3e083436	0.13301167
32	0x3dadc865	0.08485488
33	0x3c202138	0.009773545
34	0x3d97a1e3	0.07403924
35	0x3e15bf44	0.14623743
36	0x3d8fa2fc	0.07013509
37	0xbd1d355f	-0.038380977
38	0x3e962446	0.2932455
39	0x3dd64688	0.104626715
40	0xbd095a12	-0.033533163
41	0x3d917ebc	0.07104251
42	0x3d98db56	0.0746371
43	0xbd4b6521	-0.04965699
44	0x3cbe188a	0.02320506
45	0x3e273127	0.16327344
46	0x3d67eee6	0.056624316
47	0x3e536ba7	0.20646535
48	0x3e3101ed	0.17285891
49	0x3dc74394	0.097296864
50	0x3d5ea685	0.054358024
51	0x3e982fd0	0.29723978
52	0xbd42dc7c	-0.04757355
53	0x3d6f2f5c	0.058394775
54	0x3e60ee18	0.21965826
55	0x3e359e7a	0.17736235
56	0x3dbbb83e	0.09166001
57	0x3c5e975f	0.013585894
58	0x3e234119	0.15942802
59	0x3e39f83f	0.18161105
60	0xbde13255	-0.10995928
61	0xbd092de7	-0.03349104
62	0x3cd3ab93	0.025838649
63	0x3dff9615	0.12479798
64	0x3e17aafb	0.14811318
65	0x3c68c562	0.014207216
66	0x3e76ee0e	0.24114248
67	0x3e04590d	0.12924595
68	0x3d9c71b8	0.07638878
69	0xbc8be694	-0.017077722
70	0x3e3de412	0.18544033
71	0x3e797452	0.24360779
72	0xbe0cbd60	-0.13744116
73	0xbadc1ff7	-0.0016794194
74	0x3d80d5a9	0.062907524
75	0x3e1f5b94	0.15562278
76	0x3e363db5	0.17796977
77	0x3d5b16d6	0.053488575
78	0x3e28dcee	0.16490528
79	0x3da5c4e7	0.08094197
80	0x3b8a8b17	0.0042280066
81	0x3dd2d2f3	0.102941416
82	0x3e3b3c8b	0.18284814
83	0x3e282f42	0.16424277
84	0x3e2cbd8f	0.16869186
85	0x3d6779bf	0.05651259
86	0x3d6cf6e6	0.05785265
87	0x3e4532f3	0.19257717
88	0x3e25815a	0.16162625
89	0x3d22534f	0.03963023
90	0x3df30bc6	0.1186748
91	0x3df4a6ca	0.11945875
92	0x3cbe9f56	0.023269337
93	0xbd76b1a8	-0.06022802
94	0x3e72849b	0.23683397
95	0x3e519bc3	0.20469575
96	0x3d3586a7	0.044317868
97	0x3e3967a5	0.18105944
98	0x3e21c54f	0.15797924
99	0x3c8bbffc	0.017059319
100	0x3e4d5de4	0.20055348
101	0xbe10d223	-0.14142661
102	0x3e412d3a	0.18864909
103	0x3e2beff4	0.16790754
104	0x3d708e0d	0.05872922
105	0x3dc4841f	0.095955126
106	0x3de5725c	0.11203453
107	0x3cd32726	0.025775503
108	0x3e238132	0.15967253
109	0x3e4a9b25	0.19785745
110	0x3e902210	0.28150988
111	0xbb9f6fac	-0.0048656072
112	0x3e2450da	0.16046467
113	0x3e0c4953	0.13699846
114	0x3b65eac7	0.0035082565
115	0x3d2ce5d2	0.04221136
116	0xbdd3ac53	-0.103356026
117	0xbbdba946	-0.0067035286
118	0xbdf81f4a	-0.12115343
119	0xbdce27c1	-0.10066176
120	0x3d97f064	0.07418898
121	0x3db34393	0.08753123
122	0x3db0e44d	0.08637295
123	0xbdc6f234	-0.09714165
124	0xbc171632	-0.0092216
125	0x3d513fcd	0.051086236
126	0x3d703b6f	0.05865043
127	0x3e4a2c57	0.19743477
128	0xbd81d659	-0.06339712
129	0xbe52eca0	-0.20598078
130	0xbc5155d3	-0.01277681
131	0x3d9ae878	0.07563871
132	0xbbba6c22	-0.00568916
133	0x3d6c61db	0.05771051
134	0x3cd3f92b	0.025875648
135	0x3d88a2b5	0.06671659
136	0x3e18236e	0.14857265
137	0x3d658976	0.056039296
138	0xbceca966	-0.02888937
139	0x3d976bad	0.073935844
140	0x3d3c149f	0.045918103
141	0xbd84fce3	-0.06493547
142	0xbc688507	-0.014191872
143	0x3dc6c0ab	0.09704717
144	0xbd4d89c7	-0.050180223
145	0x3de5af06	0.11215024
146	0x3da46151	0.08026374
147	0xbd7f0922	-0.06226457
148	0xbd8535e0	-0.065044165
149	0xbcdcb876	-0.026943427
150	0xbc8c6691	-0.017138751
151	0x3d58b4a8	0.052906662
152	0xbe266cf1	-0.16252495
153	0xbdc816fd	-0.0977001
154	0xbe29b380	-0.1657238
155	0x3d50b3f2	0.05095286
156	0x3ce6ebed	0.02818867
157	0x3d594a38	0.053049296
158	0x3c9acd47	0.018896712
159	0x3da9d296	0.08292119
160	0x3e3ed9cf	0.18637775
161	0x3d6039da	0.05474267
162	0xbddc4928	-0.10756141
163	0xbda76710	-0.081739545
164	0x3e0be85c	0.13662857
165	0x3e2c9f73	0.168577
166	0xbb3f2ee0	-0.0029172227
167	0x3e24f99e	0.16110846
168	0xbcacce26	-0.021094393
169	0x3de27eaa	0.110593155
170	0xbdd39f82	-0.10333158
171	0xbdd91133	-0.105989836
172	0xbe407af8	-0.18796909
173	0xbd81b9c1	-0.06334258
174	0xbd541b48	-0.05178383
175	0x3a3ba0da	0.00071574526
176	0x3dca09bf	0.0986514
177	0xbd85d35b	-0.065344535
178	0xbda2ae88	-0.079434454
179	0x3cd3fff4	0.025878884
180	0x3cae9ff0	0.021316499
181	0xbd8c7082	-0.06857397
182	0xbd625b03	-0.055262577
183	0xbdb2e559	-0.08735151
184	0x3d95fa2f	0.07323109
185	0x3e39af34	0.18133241
186	0xbd2e49da	-0.0425509
187	0xbd8780a0	-0.0661633
188	0xbc175eba	-0.009238893
189	0xbd4eb69f	-0.05046713
190	0x3b0b071f	0.0021213961
191	0xbe3fcb74	-0.18729955
192	0x3d815e3f	0.06316804
193	0xbbcd44a0	-0.0062642843
194	0x3ceb9be0	0.02876085
195	0xbcd4474f	-0.025912909
196	0x3e3ffab8	0.18747985
197	0x3db6b8b6	0.089219496
198	0xbdd4a829	-0.103836365
199	0xbdafa576	-0.08576481
200	0xbe1d6184	-0.1536923
201	0xbc440b7a	-0.011965627
202	0xbd5d1507	-0.05397513
203	0x3c67cb94	0.014147658
204	0xbd15d963	-0.03658427
205	0xbacff980	-0.0015867203
206	0xbe248412	-0.16066006
207	0xbd6702ae	-0.05639904
208	0xbac67765	-0.0015141784
209	0xbdc7734e	-0.097387895
210	0x3df19392	0.11795725
211	0xbd48548d	-0.04890876
212	0xbe11ae86	-0.14226732
213	0x3d576df7	0.052595105
214	0xbcba4f80	-0.022742987
215	0xbd5ad951	-0.053429905
216	0x3d2a12ec	0.04152195
217	0xbdbc9435	-0.09207956
218	0x3d7e8b28	0.06214443
219	0xbdbab8b6	-0.09117262
220	0x3d76c2bb	0.060244303
221	0xbd09c72f	-0.033637222
222	0x3d50cfc8	0.050979406
223	0xbe1b0128	-0.1513716
224	0xbcb23932	-0.021755788
225	0xbc99f92b	-0.01879557
226	0x3dda16d1	0.10648883
227	0x3d8bc567	0.06824761
228	0x3c6c8a9d	0.014437345
229	0x3df2e638	0.11860317
230	0x3cd42786	0.025897752
231	0xbd5cfde9	-0.053953085
232	0xbdf22005	-0.118225135
233	0xbd30b29b	-0.04313908
234	0x3e30d9b4	0.17270547
235	0xbe28b881	-0.16476633
236	0xbc5008e7	-0.012697435
237	0xbdc053f8	-0.09391016
238	0xbb5be8a9	-0.0033555424
239	0xbd378135	-0.044800956
240	0x3e0a5958	0.13510644
241	0xbd8e8129	-0.06958229
242	0x3e470d0e	0.19438574
243	0xbd6aa734	-0.057288364
244	0xbbb24472	-0.005440288
245	0xbd2f66cd	-0.042822648
246	0x3d162abd	0.036661852
247	0xbe24866c	-0.16066903
248	0x3d4263b5	0.04745837
249	0x3e2b891a	0.16751519
250	0x3ccd8f8e	0.025092866
251	0xbd9409ca	-0.072284296
252	0x3e0e8425	0.13917597
253	0xbe44efd5	-0.19232114
254	0x3e1988b9	0.14993562
255	0xbda43ff0	-0.080200076

weight f4 [10, 128]
0	0x3d43015d	0.047608722
1	0xbdc0e5e1	-0.09418846
2	0xbe76c4b0	-0.24098468
3	0x3cb6090d	0.022221113
4	0x3d553e01	0.052061085
5	0x3e16414c	0.14673346
6	0x3e533787	0.20626651
7	0xbda23254	-0.079197556
8	0xbd74aadf	-0.059733268
9	0x3cd8e2b8	0.026475295
10	0x3bb6c54c	0.005577719
11	0x3f1f7a79	0.62296253
12	0x3e2feb13	0.17179517
13	0x3d02b26a	0.03190843
14	0xbd4f348c	-0.050587222
15	0xbe0d34e5	-0.13789709
16	0x3e6c5a9e	0.23081443
17	0x3e813b59	0.2524059
18	0xbd964400	-0.07337189
19	0x3e157b2c	0.14597768
20	0xbeb1f59a	-0.34757692
21	0xbea1bcc4	-0.3158933
22	0xbc989b0e	-0.018628623
23	0x3ea51805	0.32244888
24	0xbf21cdc0	-0.63204575
25	0x3db5f28f	0.08884155
26	0xbdbc28ac	-0.09187445
27	0x3df5af43	0.11996319
28	0x3e5ab506	0.21358117
29	0x3dd4db98	0.10393447
30	0x3db84842	0.08998157
31	0xbd6a2f7f	-0.057174202
32	0x3d1698a1	0.036766652
33	0x3d79b302	0.06096173
34	0xbcba2af0	-0.022725552
35	0x3da5cb4f	0.08095419
36	0xbc3cb55c	-0.011517849
37	0x3d920e73	0.07131662
38	0xbd1430f5	-0.0361795
39	0x3c4d2f7c	0.012523528
40	0xbe992600	-0.29911804
41	0x3d6ee3dc	0.058322772
42	0x3e7f489f	0.24930046
43	0xbea65f9e	-0.32494825
44	0x3da6cf5b	0.08145019
45	0x3b9f8666	0.0048683165
46	0xbdce8739	-0.100843854
47	0x3ef20cff	0.4727554
48	0x3e31c813	0.17361479
49	0x3e0ad5b1	0.1355808
50	0xbeb5f849	-0.3554099
51	0xbe48348b	-0.19551294
52	0xbe8bd2fe	-0.27309412
53	0xbe70623b	-0.23474972
54	0xbe37884e	-0.1792309
55	0xbcca26c1	-0.024676682
56	0x3d64be1a	0.055845357
57	0xbef57810	-0.47943163
58	0xbe303206	-0.17206582
59	0x3e8e4ce5	0.2779304
60	0xbeb54bf4	-0.3540951
61	0xbd44f341	-0.048083548
62	0xbe7b80a8	-0.24560797
63	0xbe44d466	-0.19221649
64	0x3d00a6f2	0.03140921
65	0x3d9da339	0.07697148
66	0xbc10749f	-0.008816867
67	0xbdc58a51	-0.096455224
68	0x3dc5a233	0.09650078
69	0xbe1387c8	-0.14407265
70	0x3b4721f4	0.0030385228
71	0x3d84480f	0.064590566
72	0x3e1a7611	0.15084101
73	0xbe93da24	-0.28877366
74	0x3e08431b	0.13306849
75	0x3b826f82	0.003980578
76	0x3e80a727	0.25127527
77	0xbe6de2ed	-0.23231097
78	0x3d898b4b	0.06716021
79	0xbe50dbc2	-0.20396331
80	0x3f1cc1e3	0.6123335
81	0xbd4913eb	-0.04909126
82	0x3a99e10f	0.0011740046
83	0x3da52eb4	0.080655485
84	0xbe977104	-0.29578412
85	0xbec900c6	-0.39258403
86	0x3e239a12	0.15976742
87	0xbdcb2744	-0.09919599
88	0x3ea34d02	0.3189469
89	0x3e66d532	0.22542265
90	0x3c2666e0	0.010156363
91	0xbf0ce323	-0.55034083
92	0x3e1b1ebe	0.15148446
93	0xbf22ca79	-0.635902
94	0xbeb423bc	-0.35183513
95	0xbd486c4c	-0.048931405
96	0x3f081ce1	0.53169066
97	0xbc9f41cb	-0.019440552
98	0x3e1815b1	0.14852025
99	0x3d5598d4	0.0521477
100	0x3b39a004	0.0028324137
101	0xbe22bd48	-0.15892518
102	0x3efc0fa5	0.49230686
103	0xbe4f7aa0	-0.20261621
104	0x3ede2467	0.43387148
105	0x3d6e87c9	0.058234964
106	0xbca65d2a	-0.020308096
107	0xbe222231	-0.15833355
108	0x3b376c16	0.0027988008
109	0x3d963561	0.073344
110	0x3d3afe7f	0.045652863
111	0x3dff5334	0.124670416
112	0xbde402f5	-0.111333765
113	0xbd3b55c8	-0.045736104
114	0xbdf96515	-0.12177483
115	0xbe6c2330	-0.23060298
116	0xbe4f17ed	-0.2022397
117	0x3ecccd3a	0.40000325
118	0x3eccfc90	0.4003644
119	0xbdc09fa2	-0.094054475
120	0x3d7f161d	0.06227695
121	0x3e060862	0.13089135
122	0x3e28da47	0.16489516
123	0xbe323702	-0.17403796
124	0x3e2e5c12	0.1702731
125	0xbea133c1	-0.31484798
126	0x3d046762	0.032325156
127	0xbecc55c4	-0.39909184
128	0xbe52076b	-0.20510642
129	0x3d314f02	0.04328824
130	0xbc2599b1	-0.010107444
131	0xbe9bcf2b	-0.30431494
132	0x3e12c52a	0.14333025
133	0x3dfc6a5b	0.12324973
134	0x3e9a30bd	0.3011531
135	0xbea59f19	-0.32347944
136	0xbe186253	-0.14881258
137	0xbdb9ee6d	-0.09078679
138	0xbe1ca890	-0.15298676
139	0xbf57a975	-0.84242946
140	0xbdc5856b	-0.09644588
141	0x3eaad42c	0.33365
142	0xbed2e4ff	-0.41190335
143	0xbe08710d	-0.13324375
144	0x3ba07e0a	0.0048978375
145	0x3e380b8e	0.17973158
146	0xbe105221	-0.1409383
147	0x3e475dda	0.19469395
148	0xbdb1d7cf	-0.0868374
149	0x3db592c2	0.088658825
150	0x3dc3edbb	0.09566828
151	0x3d9c0628	0.07618362
152	0x3ec54958	0.3853252
153	0x3dd72143	0.10504391
154	0x3e59a249	0.21253313
155	0x3e184c8d	0.14872952
156	0x3db944ff	0.09046363
157	0x3e8fd0fb	0.28089127
158	0xbe4c15d9	-0.19930209
159	0xbe4e8481	-0.20167734
160	0x3dfe2fd8	0.12411469
161	0xbd2e69b2	-0.042581268
162	0x3e894469	0.26810005
163	0x3d152622	0.03641332
164	0x3ddfc6c7	0.10926586
165	0xbe35a0d0	-0.17737126
166	0x3e8ef6ab	0.27922568
167	0xbdecc6b0	-0.11561334
168	0x3e157d3b	0.14598553
169	0xbe9294fc	-0.2862929
170	0xbd107dd4	-0.03527625
171	0xbe3b7a16	-0.18308291
172	0x3d8fd98c	0.07023916
173	0x3e4ff667	0.20308839
174	0x3eb2ee7f	0.34947583
175	0x3e25efe4	0.16204792
176	0xbc9f744a	-0.01946463
177	0x3e2543ce	0.16139147
178	0x3d3ebbdf	0.046565887
179	0xbec68fd2	-0.387816
180	0x3d9cd991	0.07658685
181	0xbe71bc38	-0.23606956
182	0x3dff9285	0.12479118
183	0xbdbdef14	-0.09274116
184	0xbe830eef	-0.2559733
185	0x3d71c903	0.05902959
186	0x3e7ff28a	0.24994865
187	0x3bab4c5d	0.005227609
188	0xbd294eb5	-0.041334826
189	0x3dcd73ea	0.100318745
190	0xbe7e8e61	-0.24859
191	0xbebfd2ac	-0.37465417
192	0xbeb465b5	-0.35233846
193	0xbec50905	-0.38483444
194	0x3d994df6	0.07485573
195	0x3e08c849	0.13357653
196	0x3e037759	0.12838496
197	0x3e69c43c	0.22828764
198	0x3ea22746	0.31670588
199	0xbf6aa49e	-0.91657436
200	0xbdf16906	-0.1178761
201	0xbcd979b9	-0.0265473
202	0xbf1d3366	-0.6140655
203	0x3e2c6136	0.16833958
204	0xbe6fa2b5	-0.23401912
205	0x3dfcd328	0.12344962
206	0xbe57c036	-0.21069416
207	0xbe9d629c	-0.30739295
208	0xbe934b23	-0.28768262
209	0xbe909d9b	-0.28245243
210	0xbdf21973	-0.1182126
211	0xbe6e925a	-0.23298016
212	0xbebcbd56	-0.36863202
213	0xbd019e3b	-0.03164504
214	0xbddb67e0	-0.10713172
215	0xbec86fe4	-0.39147866
216	0xbe15f573	-0.14644413
217	0x3dc0da3f	0.09416627
218	0xbdad481d	-0.0846102
219	0xbf0452ad	-0.51688653
220	0x3e7d9eea	0.24767652
221	0x3f02d273	0.5110237
222	0x3ec8dad8	0.39229465
223	0x3d7c45e4	0.06159009
224	0xbe2c9d8b	-0.16856973
225	0xbc1e9b3a	-0.009680564
226	0x3ec3c0c4	0.38233006
227	0x3da85896	0.082200214
228	0xbe900754	-0.2813059
229	0x3da30337	0.079595976
230	0x3dfbd9e1	0.122974165
231	0x3daf90f1	0.08572567
232	0xbea1809c	-0.31543434
233	0x3cec1812	0.028820071
234	0x3c368b67	0.011141635
235	0x3e893a0c	0.268021
236	0xbe094712	-0.13406017
237	0x3e6e7c72	0.2328966
238	0x3ecd854d	0.40140763
239	0x3e1fa4c2	0.15590194
240	0xbe29e144	-0.16589838
241	0x3eb110ca	0.34583122
242	0xbe0325c5	-0.12807377
243	0x3ea987ce	0.33111423
244	0xbdbc0c83	-0.09182074
245	0xbe21355d	-0.15743013
246	0xbf12bb4e	-0.57317054
247	0xbec54e92	-0.38536507
248	0x3e53d6d3	0.20687418
249	0x3ccde6e7	0.025134517
250	0xbde020bb	-0.10943743
251	0xbe81a45d	-0.25320712
252	0xbe42db1f	-0.190289
253	0x3d789c61	0.06069601
254	0x3d92f4d8	0.071756065
255	0x3ee539e5	0.44770733

bias f4 [10]
0	0xbcd26cd5	-0.02568666
1	0x3df27d11	0.11840261
2	0x3d3afc91	0.045651022
3	0x3d2f97ea	0.042869486
4	0xbcf8710a	-0.030327339
5	0xbd22c8ed	-0.0397424
6	0xbdbbc8b9	-0.09169144
7	0xbd25e258	-0.04049906
8	0xbd75e8e8	-0.06003657
9	0x3b4261e8	0.0029660407
